project/weights/acc_92.86.ckpt (torch_old, 412820 bytes, 4 tensors)

fc1.weight f4 [100, 1024]
000000 b2 d5 32 bc 00 b1 ab bc e4 14 d7 bb e3 e2 9a ba
       -0.010915207 -0.020958424 -0.0065637697 -0.0011816885
000010 03 ee b3 3c fd 99 90 3b 73 5c c1 ba fb 18 79 3c
       0.021964079 0.004412888 -0.0014752283 0.01520371
000020 b6 50 e8 3c 3a 08 28 bd f9 7c a1 3c a4 a4 31 bb
       0.028358798 -0.04102347 0.019712912 -0.002710619
000030 49 47 06 bd 57 ae 2d ba 22 48 be 3c 20 b4 ae ba
       -0.032782827 -0.0006625405 0.023227755 -0.0013328828
000040 c7 48 08 bd d4 94 91 3b 6d b8 d7 3b 4d 52 25 3c
       -0.03327253 0.0044427905 0.0065832646 0.010090423
000050 ae 39 74 bc 50 c9 d1 bc 2f 86 74 bc bc c0 c4 3c
       -0.01490633 -0.025608689 -0.01492457 0.024017684
000060 ed a5 91 3c 03 97 1e bc e4 57 b4 3c 33 3d 58 bc
       0.017779315 -0.009679559 0.022014566 -0.013198185
000070 10 c5 ba 3c ac 75 d4 3c a9 79 eb 3b 1f d1 ae bc
       0.022799045 0.025935017 0.007186134 -0.021339951
000080 7e 23 86 3c 17 f6 b1 bc 20 77 b1 ba 06 d3 96 3c
       0.016374346 -0.02172379 -0.001353953 0.01841117
000090 86 e1 21 bb aa eb 3e 3d 7d fb 3a bc 2a 6b b9 3b
       -0.0024701073 0.046611466 -0.011412499 0.005658527
0000a0 e4 f0 05 bc 7c 59 00 bb 42 e7 f1 bc 64 1c a3 bc
       -0.008175109 -0.0019584587 -0.029529218 -0.019910999
0000b0 60 5e 55 bd 2e c0 df 3b f7 42 eb bc 87 1e ad bc
       -0.052091956 0.0068283295 -0.028718455 -0.02113272
0000c0 4d 6f b5 3c 9f e8 0c 3d 44 4a 20 3c e0 0b a8 3b
       0.022147799 0.034401532 0.009783331 0.0051283687
0000d0 d2 10 13 3c 8f a0 09 3c d7 77 06 3c 9d 59 4e bc
       0.008976178 0.008400097 0.008207283 -0.012594608
0000e0 41 cc 1e bb cc a7 15 3d 4d 3e 26 3d 02 b2 9e bb
       -0.0024230632 0.036536977 0.04058676 -0.0048429975
0000f0 e5 a9 82 3c 98 f8 be 3c 6a 6e 34 bc 37 0e ef bc
       0.015950153 0.023311898 -0.011012653 -0.029181583
000100 5b d4 c6 3c e4 18 fc 3b 60 49 bc 3c 65 98 c4 b8
       0.02427118 0.007693397 0.022984207 -9.374394e-05
000110 4c ed 83 3c 2d 58 77 3c e7 6a 45 3d 9f 0d 93 3c
       0.016104363 0.015096706 0.048197653 0.017950831
000120 3f d2 14 bc 75 21 42 3b ea e4 20 bd fd e5 be bc
       -0.00908333 0.0029621993 -0.03928081 -0.023303026
000130 43 ca 09 bd 58 fa 2e 3c c8 93 64 3c 92 36 0a 3c
       -0.033640157 0.010679804 0.013951249 0.008435862
000140 8a de 73 3c 0b 3b 22 3b 77 7e 1b 3d 6e 2b 92 3b
       0.0148846 0.002475443 0.037962403 0.0044607436
000150 b3 61 05 3c 87 d1 3a 3d 7b fe 2d 3d 4a 7c da ba
       0.008140969 0.045609977 0.04247902 -0.0016669121
000160 ec 16 12 3d 12 04 90 3c c4 c1 42 3d 86 5f a8 bb
       0.03566639 0.017580066 0.04754807 -0.0051383404
000170 9e 9d d9 3c 49 0a 05 3d 2c ac 3e 3c db 9c e2 bc
       0.026564416 0.03248051 0.011637729 -0.027662685
000180 e7 67 43 3d 15 21 68 3c dd a4 04 bc 8c 14 ac 3c
       0.04770651 0.014168044 -0.008095947 0.021005891
000190 9a a1 99 3d 34 f3 6d 3d 4a fc d2 3c 5c c9 03 ba
       0.07501526 0.058093265 0.025755066 -0.00050272583
0001a0 41 84 08 3d a2 f3 8b bc dd a5 15 3d fc 19 13 bd
       0.033329252 -0.017083947 0.036535133 -0.035913453
0001b0 91 eb 34 bd 1d 0c 20 bd cb 04 09 3d 45 62 5a bc
       -0.044169966 -0.039074052 0.033451837 -0.013329093
0001c0 36 65 44 3c 70 c3 db 3c 0c 1f 15 3d 5a f1 fa 3c
       0.011987021 0.02682659 0.03640656 0.030632664
0001d0 38 12 25 3d 40 cd a4 3c f9 21 fa 3a c0 ab 3c 3d
       0.040300578 0.020117402 0.0019083611 0.04606223
0001e0 ce f4 02 3d 0b b4 0b 3d 84 af 2e 3d 9f ca de bb
       0.031971745 0.03410725 0.042647853 -0.0067990567
0001f0 9d 9a f6 3c 2b a4 eb ba 29 97 3c 3c 1f c2 4e ba
       0.030103022 -0.0017978003 0.011510649 -0.00078872027
000200 8b e1 98 3a 49 cc 3c 3d 7d c6 39 3d 16 81 4d 3d
       0.0011663897 0.04609326 0.04535531 0.050171934
000210 54 2d a9 3c b5 0c 2e 3d 1c 3a 28 3d e4 58 3d 3c
       0.020651497 0.042492587 0.041071042 0.011556838
000220 4d 3b 7e bb 32 51 92 bc 78 4d e0 bc 2f ec e2 bb
       -0.003879267 -0.017860983 -0.02738069 -0.006925128
000230 bd d9 f3 bc fa 32 f5 bc c6 e5 f5 3c 52 6f 3b bc
       -0.029766912 -0.029931534 0.030016791 -0.011440115
000240 cc 40 4d 3c 28 a6 1f 3d 4d 29 da 3c f4 fc 9d bc
       0.012527656 0.03897682 0.026631022 -0.019285657
000250 ce c3 1d 3d 2f 8f ce 3c 50 de f2 b9 9c d4 5f 3d
       0.038516812 0.02521476 -0.00046323473 0.05464612
000260 5d 90 1b 3c c7 25 56 bc b4 2a 19 3d 0c 89 63 3d
       0.009494868 -0.01307053 0.03739424 0.05555062
000270 af 48 27 3d bf 7c d2 bb ef b4 d9 bc e1 2b bf ba
       0.0408408 -0.0064235623 -0.026575534 -0.001458522
000280 65 7d 64 3c a9 06 95 3d 0c 18 e1 3c 0e 0f 51 3d
       0.013945912 0.07276661 0.027477287 0.051039748
000290 4b 99 c1 3c 2a c9 93 3c f7 75 0e 3d 90 f0 1b 3d
       0.023632666 0.018040258 0.03478047 0.038071215
0002a0 dc 08 a1 ba e6 47 17 3d dc cf b0 bc e9 82 f6 bc
       -0.0012285965 0.036933802 -0.02158349 -0.03009172
0002b0 fe 65 ab bb 36 b9 94 bb 09 a5 18 3c 5b bf 62 bd
       -0.0052306643 -0.0045386804 0.009316691 -0.055358272
0002c0 0d 8e 9e bc 47 c4 e3 bb d2 73 8f 3c 49 e1 83 ba
       -0.019354844 -0.0069508883 0.017511282 -0.0010061647
0002d0 7a 83 de 3c d5 c0 a2 3c 2e af 50 3d 96 b8 dd 3c
       0.027162302 0.01986734 0.050948314 0.027065556
0002e0 ad 86 0f 3d ec e1 3d 3c 9a f6 eb bb b1 90 52 3b
       0.035040546 0.0115895085 -0.007201028 0.00321297
0002f0 c3 0e 19 ba 13 0e 52 3c df 65 e4 bc 5c f4 21 3b
       -0.00058386865 0.012820738 -0.027880607 0.00247123
000300 74 6f 40 3d 94 34 1c 3d ce 53 97 3b 7e a3 12 3d
       0.04698129 0.03813608 0.0046181446 0.03580045
000310 83 13 a4 3d 9c 2e 3f 3d f3 41 90 3d d3 ee 25 3d
       0.08011534 0.04667531 0.07043829 0.040510964
000320 b1 96 02 3d 8f 82 24 3d 44 94 2f 3c 85 0d 8b 3b
       0.03188199 0.040163573 0.010716502 0.004243555
000330 ea c3 35 3c 2e 1d 1c bd 05 34 bf bb 6e ef 04 bd
       0.011094073 -0.038113765 -0.0058350586 -0.0324549
000340 de 97 1e 3b bc 73 8b 3c 2a 46 64 3d aa 47 1f 3d
       0.0024199407 0.01702296 0.055730976 0.038886704
000350 26 c8 2f 3d 63 50 93 3c f4 5a 43 3d d2 d8 82 3d
       0.042915486 0.017982667 0.04769416 0.063890114
000360 ad 48 e3 3c 9a 49 36 3d b4 2e 7b 3d 9f 6a 4e 3d
       0.027744615 0.044503786 0.061323836 0.05039465
000370 ae c3 34 3c bc 51 58 3d 4e 30 a6 bc 50 20 e8 3c
       0.011032982 0.052812323 -0.020286705 0.02833572
000380 12 5e 8c 3c 9c f5 80 3c 0a 04 56 3c e8 5d 5d 3c
       0.0171347 0.015742116 0.013062486 0.0135111585
000390 19 00 26 3d 38 19 7f 3c 33 8f 37 3d 69 f3 d0 3c
       0.040527437 0.015569977 0.0448143 0.025506692
0003a0 d2 f9 72 3c 48 20 3e 3d a2 60 20 3d 46 87 9a 3c
       0.01483007 0.046417505 0.039154656 0.018863332
0003b0 7e 72 06 bd 49 36 45 3b 3f 88 b0 bc 5c 80 07 bd
       -0.032824032 0.003009217 -0.021549342 -0.033081397
0003c0 33 87 02 bb d0 72 1a 3d 05 1e 53 3d 7e 1f ab 3c
       -0.001991701 0.03770715 0.0515423 0.02088904
0003d0 22 26 3a 3d af c0 ce 3c d5 ea 6e 3d 92 e0 83 3d
       0.045446523 0.025238363 0.058329422 0.06439318
0003e0 20 ac 13 3d 75 9f 0f 3d 71 1f fd 3c 1f d0 60 3d
       0.036052823 0.03506418 0.030898781 0.05488598
0003f0 c1 84 16 3d be 91 1e 3d 3a dd 03 3d 86 14 57 bc
       0.036747698 0.03871321 0.0321934 -0.013127452

fc1.bias f4 [100]
000000 bd 7a a8 3a 44 30 67 3c ac 95 f0 bb 55 c2 f9 3c
       0.0012853962 0.0141106285 -0.007342061 0.030488173
000010 81 bd 81 3c c6 6a eb bc 8e 70 b5 3a 27 45 ee bc
       0.015837433 -0.028737437 0.0013842748 -0.029085709
000020 11 25 b4 3c e0 e1 cd 3c 08 c8 af 38 e7 8d 27 bc
       0.02199033 0.02513212 8.381909e-05 -0.010226703
000030 db 8d 24 bc 7c 7b 31 3d b1 a7 b8 3c 58 f5 0c 3d
       -0.010043587 0.043330655 0.022540899 0.034413666
000040 d1 4e e8 3c f7 5f a0 bc de 87 cf 3b f9 49 c9 3c
       0.028357895 -0.01957701 0.0063333353 0.024571406
000050 de 20 e4 bb 1e 76 d8 bc 17 0a 24 bc 75 16 48 bb
       -0.006961926 -0.02642351 -0.010012171 -0.0030530964
000060 97 5d 4d b9 94 e2 20 3b cc dc 88 bb 54 c1 31 bc
       -0.00019585188 0.0024549114 -0.0041767117 -0.010849316
000070 be 02 87 3d 58 25 bb 3c 22 e1 3f 3c 9f e3 e8 3c
       0.0659232 0.022844955 0.011711391 0.02842885
000080 e2 70 c4 3c 4f 9c 35 3d 56 e4 bc bc 18 30 99 3b
       0.023979608 0.04433852 -0.023058098 0.0046749227
000090 09 75 40 3c 5f 47 f5 3c 12 5c 7f 3c 8a dc 53 bc
       0.011746653 0.029941259 0.015585916 -0.012930999
0000a0 aa 84 f5 3b 38 4f 9b bb e2 9f 77 3b aa e7 9b 3c
       0.0074926214 -0.004739668 0.0037784507 0.019031364
0000b0 41 39 09 3d ba 92 be 3c 14 38 88 3b 63 ac 06 3d
       0.033501867 0.023263324 0.0041570757 0.032879245
0000c0 d7 9d 84 bb a6 85 22 3b a1 ea b1 3c d2 9e 10 bc
       -0.0040471363 0.00247989 0.021718325 -0.008826928
0000d0 74 b1 b2 bc 29 12 1d bd 66 c0 8a bc c5 95 ed bc
       -0.021813132 -0.038347397 -0.016937446 -0.02900208
0000e0 7a 51 14 3c 0e f8 dd bb 8b b4 8a 3b 68 97 e9 3c
       0.009052629 -0.006773955 0.004232948 0.028514579
0000f0 fb 61 1b 3c 13 a8 5b bc e6 1f ab bc 83 14 b5 3b
       0.00948381 -0.013406771 -0.020889234 0.005526127
000100 94 5a c3 bb d7 66 b7 bc f3 72 40 3c 2e 63 19 3c
       -0.0059617255 -0.022387905 0.011746156 0.009362025
000110 df 7d 90 b8 e6 c9 5d bc ca 98 b7 3c 70 b0 65 3c
       -6.8899004e-05 -0.013536906 0.022411723 0.014019117
000120 d0 a1 eb ba cb 4f a7 3c 89 42 eb 3b 4c 71 11 3d
       -0.0017977301 0.02042379 0.0071795625 0.03550844
000130 4b fe 72 3b a0 db 14 bd 5f 4f 0a bc 80 8c 2b ba
       0.003707784 -0.036342263 -0.008441775 -0.00065440685
000140 27 9a 84 3c 2a 2d b0 bc 59 cb 84 3c 4d 5a 4a 3d
       0.016186787 -0.02150591 0.016210245 0.049402524
000150 8d f5 d2 bb b2 5e ad 3c da 65 76 3d a3 7f f6 3c
       -0.0064379633 0.021163318 0.060155727 0.030090159
000160 9a 98 ae bc 5a 44 fd 3c b2 ea cd bb 8f 39 9a 3c
       -0.021313 0.030916382 -0.0062840814 0.018826274
000170 f6 66 f0 bc a2 26 56 bd 44 fd bc bc b3 2e 0a bc
       -0.02934597 -0.052282937 -0.023069985 -0.0084339855
000180 7e 18 83 3c d9 97 07 bc 8b bf a6 bc a0 10 46 3c
       0.01600289 -0.008275949 -0.020355007 0.012088925

fc2.weight f4 [5, 100]
000000 f0 31 ac 3d 5f f5 f5 be af 57 a0 bd 8c d0 9b be
       0.08407962 -0.48038766 -0.07829224 -0.30432546
000010 ec 36 ee 3c 0d 2d 61 3c 03 7b 1c ba 7d 9f 0a 3d
       0.029078923 0.013743651 -0.0005969258 0.033843506
000020 e0 28 9d bd 5c 2b 8f bd 08 0c 7e 3d ae 4e 3c 3e
       -0.07673812 -0.06990692 0.062023193 0.18389389
000030 f5 4e 95 3d 00 64 6f be 61 ba e1 bd 0c 25 9a be
       0.072904505 -0.2337799 -0.11021877 -0.3010639
000040 6c 45 6f bd 7f 51 6c 3c a5 ed 94 3d f8 33 bb 3d
       -0.058415815 0.014423727 0.072718896 0.091407716
000050 8b 7a 3f 3d 4a 38 61 3d 31 0c 8d 3d 0a 35 4e 3d
       0.046747725 0.054985322 0.06887091 0.05034355
000060 ca 6d 20 be 97 98 2c 3c 94 b0 ab 3d 72 55 85 3d
       -0.15666881 0.010534427 0.08383289 0.06510438
000070 12 2d ee 3c af b2 8b be 41 86 8f bd d4 fb 4b be
       0.029074226 -0.27284762 -0.07008029 -0.19920284
000080 fb 9d c5 be 4e b4 2e bd 13 7f 19 3e f5 7d bc 3d
       -0.38597092 -0.04265242 0.14989881 0.09203712
000090 9b a6 a1 3d 66 4e 7d 3d f7 b9 21 bc da 6c 65 be
       0.078931056 0.061842345 -0.009870998 -0.22404805
0000a0 0d dc 96 bd a8 2d d0 bc 61 de df bc 62 10 a1 bd
       -0.0736619 -0.025412396 -0.027327718 -0.07864453
0000b0 54 bf b0 3d 3c 1a 04 be a4 80 e2 bc 8d 51 1d 3e
       0.08630243 -0.12900633 -0.027649231 0.1536314
0000c0 aa df c7 bd d2 ae f2 3d 7c b6 05 be 49 80 5c 3b
       -0.097594574 0.118497506 -0.13057894 0.00336458
0000d0 32 04 30 be 62 99 95 bc a1 8d 7b be 24 3e 17 3d
       -0.171891 -0.018261615 -0.24565746 0.036924496
0000e0 49 34 8b bd f6 54 0e be 73 f9 23 3e ec ce a1 bd
       -0.06797082 -0.13899598 0.16013126 -0.07900795
0000f0 cd 71 0c bc e1 77 93 bd 82 e9 ff bd 76 f3 4c 3d
       -0.008572054 -0.072005995 -0.1249571 0.05003687
000100 2c 3c a6 3d 26 4a de 3d 10 7d 01 be fb 36 a6 bc
       0.081169456 0.108539864 -0.12645364 -0.020289889
000110 07 3b d8 3d b9 41 ae bd b4 36 4f 3d c2 84 96 3c
       0.105581336 -0.08508629 0.05058928 0.01837385
000120 b3 63 08 3b ad ee 24 bb 3d 5c 09 bd c6 0e 1f be
       0.0020811378 -0.0025166676 -0.03353523 -0.1553298
000130 83 05 c0 be d7 78 d4 3d e0 e6 2f 3d f8 7a 88 bc
       -0.37504205 0.10374611 0.04294479 -0.016660199
000140 7e 97 5d bd 9a 8a ad bc e2 52 71 3d 3f b3 a6 3d
       -0.054099552 -0.021184254 0.058916934 0.08139657
000150 60 9d d4 3d 6e 37 01 be 49 ac 1a bc 2a 94 06 3d
       0.103815794 -0.12618801 -0.00944049 0.032856144
000160 fa d5 bd 3d 91 fa ad 3d 2d 8b 30 bc a7 db 57 3d
       0.092693284 0.084950574 -0.01077537 0.05269971
000170 ef fd 89 bd 44 64 af 3d b2 6d 38 3d 9e e7 90 bb
       -0.06737887 0.08564046 0.04502649 -0.004422142
000180 14 44 75 be e6 43 00 3e 95 6e fc 3d 75 17 1b 3d
       -0.23951751 0.12525901 0.12325779 0.037864167
000190 07 0c fd 3c 5a 5c a6 be 45 d0 48 bd 0b 18 b6 3d
       0.030889524 -0.32492334 -0.049026746 0.088913046
0001a0 f6 bd 93 bd 0a 03 b3 3d dc fc a2 3d 0e 90 98 3d
       -0.072139665 0.08740814 0.07958385 0.07449351
0001b0 a9 d5 c4 3b 24 92 78 bc 4c 14 ac 3d b8 50 28 3d
       0.0060069156 -0.015171561 0.08402309 0.041092604
0001c0 c4 f4 87 bd 0f 9f 8c 3d 84 8d 74 3d 36 d8 b9 be
       -0.06638482 0.068662755 0.059705272 -0.36297768
0001d0 b4 2d 3d bd 65 2b 59 3d c7 9d bf be 21 66 97 3d
       -0.046186164 0.0530199 -0.37425062 0.073925264
0001e0 b0 7b 9b 3c f1 4d 8c be 61 5b dd 3d 75 6b c1 be
       0.018979877 -0.27403215 0.10808445 -0.37777296
0001f0 77 fa e7 3d f2 73 f5 3d 20 d3 5c be b6 58 bc 3d
       0.11327069 0.119850054 -0.21564913 0.09196608
000200 ff 92 db be 09 1e 99 be b3 72 56 be ae 87 5f be
       -0.42885587 -0.29905728 -0.20942192 -0.21829101
000210 c9 f8 b1 be bb c8 ac be 77 2f 02 be 56 cb 7a 3d
       -0.3476012 -0.33746895 -0.12713419 0.061229073
000220 f3 73 c6 3d 9f e6 90 3d 07 d6 bc be da 3f 84 bd
       0.09690084 0.070752375 -0.3688204 -0.06457491
000230 d9 ab 0a be 8c ac dd bc d9 cc bc bd e5 65 05 bd
       -0.13542117 -0.027059816 -0.09218759 -0.032567877
000240 35 13 82 3d cd 38 98 be 92 79 53 bd 0a 9b 2a be
       0.0635132 -0.29730836 -0.05162961 -0.16660705
000250 00 e9 cd 3d aa 08 e6 3d 4e 2b bb be 5b f4 56 bd
       0.10054207 0.11232121 -0.36556476 -0.05247913
000260 ef 3f c7 3b 5b f7 e1 3d bd 1f 14 3e f0 90 c8 3d
       0.0060806195 0.110335074 0.14465232 0.0979327
000270 1b 9d ba 3d b1 21 3e 3d 34 b1 f2 3c 62 39 a1 be
       0.09111997 0.04641885 0.029625513 -0.31489092
000280 47 ad b1 3d 83 a6 ad 3d 1b df 44 3d 7a 75 17 3d
       0.08675628 0.08479025 0.048064332 0.03697727
000290 0a 97 9a 3d c4 df 6b 3c 05 90 ca 3c 2b 19 67 3c
       0.0754834 0.014396612 0.024726877 0.014105122
0002a0 0d 49 c8 3d 75 64 8c bc 92 ed c0 be e8 56 d6 bc
       0.09779558 -0.017137745 -0.37681252 -0.026164487
0002b0 ad f7 64 3d a9 ce cc 3d a0 b0 e3 3c 07 5b 81 be
       0.055900265 0.10000355 0.027794182 -0.2526476
0002c0 25 ae f2 bd ea 95 f5 bd 77 1c 0c bd 43 b9 8e bd
       -0.11849622 -0.119914845 -0.034206834 -0.069689296
0002d0 d3 17 be 3d a6 15 35 3d 6f 42 3f 3d 52 49 b3 be
       0.09281888 0.0442101 0.046694215 -0.35016876
0002e0 d6 66 9d be fa f5 f2 3c 90 db 72 be 64 0e d1 bc
       -0.3074252 0.029658306 -0.23716569 -0.025519557
0002f0 b0 33 be 3d 88 ed c9 bd e6 f7 02 bd 7a c5 bf be
       0.09287202 -0.098597586 -0.031974696 -0.3745535
000300 aa e2 83 3d be 12 b6 3d d0 7e 40 bd ed e4 99 3d
       0.06439717 0.088902935 -0.046995938 0.07514367
000310 2e 71 9f be d2 a3 81 bd 81 c4 2e 3e d6 45 72 3d
       -0.31141037 -0.06330074 0.17067148 0.059148632
000320 08 e1 32 be 81 04 aa 3e 35 09 75 bd 0f 70 2d 3e
       -0.17468655 0.3320656 -0.059823234 0.16937278
000330 34 df c2 3d 9e ec a8 bd 94 20 93 3c 4e a8 25 be
       0.09515229 -0.08248256 0.01795987 -0.16177484
000340 65 cb 9d 3e b2 6e c9 3d 3d 3c b2 bd 55 c1 84 3e
       0.3081924 0.098355666 -0.08702896 0.2592875
000350 75 b2 87 bd d6 04 d7 3e f5 f2 09 3e 82 94 6c 3e
       -0.06625835 0.41995877 0.13471587 0.23103526
000360 d3 d3 bb bd 80 78 01 bd e1 40 b8 3d 39 85 af bd
       -0.09171262 -0.03160906 0.0899675 -0.08570332
000370 e2 e5 a7 bc 18 18 82 be 66 5d 25 3e 95 c0 72 3c
       -0.020495359 -0.25409007 0.1614891 0.014816423
000380 62 91 b1 bd 1f bd 78 3e b1 9c c8 3d af b0 83 bb
       -0.08670308 0.24290894 0.097955115 -0.004018865
000390 a0 48 04 3e cb d4 64 3e 08 c1 9b 3d 24 99 6c be
       0.12918329 0.22346799 0.07605177 -0.23105294
0003a0 1c 52 63 3e bc f8 fb 3d 91 c2 af 3c 18 9a ae bd
       0.22199291 0.12303302 0.021455081 -0.08525485
0003b0 d1 13 02 bd 3a 1e 4f 3e 70 4b 88 3c 13 3d 22 be
       -0.03175718 0.20226374 0.016637534 -0.1584361
0003c0 99 34 72 be cd d5 b5 bd 44 70 96 bd 0a 18 3f bd
       -0.23652877 -0.0887867 -0.07345632 -0.046653785
0003d0 ee 37 93 3e 3c f8 21 3e 50 ac b9 bd 3a 28 00 3e
       0.28753608 0.1581735 -0.09066069 0.12515345
0003e0 40 ef f3 bd b9 49 f6 3d 7e bc 5d 3e fe 20 06 3e
       -0.11910868 0.1202578 0.21653935 0.13098523
0003f0 e9 56 06 be e5 66 de bd 66 7e 16 3e ae d7 6b 3b
       -0.13119091 -0.10859469 0.14696655 0.003598671

fc2.bias f4 [5]
000000 e7 e7 91 bd 7b 13 30 bc b4 fc f8 3b 48 bf 92 3d
       -0.0712431 -0.010746832 0.007598484 0.0716539
000010 d7 94 62 bd
       -0.055317726
