project/weights/acc_91_88.ckpt (torch_old, 412820 bytes, 4 tensors)

fc1.weight f4 [100, 1024]
0	0x3b94c9a9	0.0045406413
1	0x3d23479b	0.03986321
2	0xbc21ae9a	-0.009868288
3	0x3cea486c	0.028598987
4	0xba29a46c	-0.0006471339
5	0xbca3ab8e	-0.019979265
6	0x3d006eff	0.031355854
7	0xbc8876a0	-0.016658127
8	0xbb1f8de9	-0.002434606
9	0x3b1b7130	0.0023718588
10	0xbbaa6326	-0.0051998077
11	0x3c8cae7e	0.017173048
12	0xbcdbf0f4	-0.026848294
13	0xbd96a69c	-0.07355997
14	0xbd4601e6	-0.048341654
15	0xbcf107fa	-0.029422749
16	0xbcf20ccc	-0.029547118
17	0xbd61fd43	-0.05517317
18	0xbd2299d5	-0.039697487
19	0xbbc1762a	-0.005903979
20	0x3aa1e8ea	0.0012352739
21	0x3d0f8b1f	0.035044786
22	0x3bf13de3	0.007362114
23	0xbacdf2aa	-0.0015712578
24	0xbbefc1b9	-0.0073167947
25	0x3d0ed739	0.03487322
26	0x3a76cc3e	0.000941459
27	0xbb9cca48	-0.004784856
28	0x3c855c76	0.01627944
29	0x3cb2f70f	0.021846322
30	0xbc0c33f9	-0.008557313
31	0x3c76a440	0.015053809
32	0xbc6d5d3e	-0.014487563
33	0xbc31ad71	-0.010844574
34	0x3cc441de	0.02395719
35	0x3c30a3fd	0.010781285
36	0x3bcda1cc	0.006275391
37	0x3caf3977	0.021389706
38	0xbd0c493c	-0.03424953
39	0x3bb8d6f7	0.00564086
40	0xbd0b0d81	-0.033948425
41	0x3cadb6e5	0.021205375
42	0xbbb0bc16	-0.0053935153
43	0xbc1ca5c8	-0.00956101
44	0xbc9f02dd	-0.019410545
45	0xbcc83a43	-0.024441844
46	0xbab1d1e8	-0.0013566585
47	0xbd3179d3	-0.04332907
48	0xbce78f4d	-0.028266573
49	0xbd9c675e	-0.07636903
50	0xbd050e32	-0.03248424
51	0xbcbdbf29	-0.023162441
52	0xbcd046b2	-0.025424335
53	0xbc577009	-0.01314927
54	0xbb629b4d	-0.003457743
55	0xbcc50eba	-0.024054874
56	0x3c16b03f	0.009197294
57	0xbc656201	-0.014000417
58	0x3a5dc88e	0.0008460366
59	0xbcb0ff40	-0.021606088
60	0x3c6bd0c1	0.0143930325
61	0xbc0699c7	-0.008215374
62	0x3ca68390	0.020326406
63	0x3d134c84	0.035961643
64	0x3c7457a9	0.014913478
65	0x3d124daa	0.035718597
66	0x3cd0eb84	0.025502928
67	0xbcd9994d	-0.026562357
68	0x3c9d38b6	0.019192081
69	0x3c5cad0e	0.013468994
70	0xbc0c61f1	-0.008568273
71	0xbaff4b23	-0.0019477349
72	0x3bc1e1e2	0.00591682
73	0xbd0d0e6e	-0.03443759
74	0x3cec77e6	0.028865766
75	0x3c8424af	0.016130773
76	0xbcd9c7a7	-0.02658446
77	0xbd5fa721	-0.054602746
78	0xbcf3d0cf	-0.029762654
79	0xbd4acb7e	-0.04951047
80	0xbc166428	-0.009179153
81	0xbd14047d	-0.036137093
82	0xbd53e3ed	-0.05173104
83	0x3b4645e3	0.0030254058
84	0x39e69f65	0.00043987777
85	0xbcebdcad	-0.02879175
86	0xbd0c1fd2	-0.034210034
87	0xbd26f8fc	-0.040764794
88	0xbcc4eb74	-0.024038054
89	0x3ac2aea5	0.0014853074
90	0xbcfa7177	-0.030571682
91	0xbcce1567	-0.02515669
92	0xbbf02563	-0.0073286756
93	0xbc8ace06	-0.016943943
94	0xbc20150d	-0.009770644
95	0x3cafb6b6	0.021449428
96	0x3d0c041a	0.0341836
97	0x3ceba5c1	0.028765561
98	0x3d34a8dd	0.044106353
99	0x3cc146fe	0.023593422
100	0xbcb4ca81	-0.022069218
101	0x3c3105de	0.0108046215
102	0xba87eb1e	-0.0010369753
103	0xbc852f46	-0.016257893
104	0xbd32b880	-0.043632984
105	0xbcea57c6	-0.028606307
106	0x3c39f9dc	0.011351075
107	0x3ca5fdb7	0.020262582
108	0x3cd5ffa0	0.026122868
109	0x3b37a35b	0.0028020951
110	0x3c0c58fc	0.008566137
111	0xbca299fd	-0.019848818
112	0xbce98351	-0.028505
113	0xbd1d3e79	-0.038389657
114	0xbd62663d	-0.055273283
115	0x3cd6b961	0.026211442
116	0x3c234728	0.009965695
117	0x3cc10ca1	0.023565592
118	0x3cc6c73a	0.02426492
119	0xba9c89cd	-0.0011942923
120	0x3cceda4b	0.025250575
121	0x3cb29534	0.021799661
122	0x3bfe9e27	0.007770318
123	0x3cfdf801	0.031002047
124	0xba8576f4	-0.0010182546
125	0x3b3b7006	0.0028600707
126	0xbc437447	-0.011929578
127	0x3c2d83a8	0.010590471
128	0xbcddfbd8	-0.027097628
129	0x3ce8643e	0.028368112
130	0xbb6bf0e3	-0.0036001734
131	0x3c1a5a35	0.009420921
132	0x3ccf0b34	0.025273897
133	0xbb096311	-0.002096359
134	0xbd1b5354	-0.037921265
135	0xbcd93fc0	-0.026519656
136	0x3c86d439	0.016458618
137	0xbcdb0bd8	-0.026739046
138	0xbc2d306a	-0.010570625
139	0x3a81d791	0.0009906163
140	0xbd110dce	-0.035413556
141	0xba6183ac	-0.00086026895
142	0xbc5986a1	-0.013276727
143	0xbcfd751b	-0.03093963
144	0xbc760988	-0.015016921
145	0xbd870e6f	-0.0659455
146	0xbd58d7e1	-0.052940253
147	0x3a63cc77	0.00086898304
148	0xbd0bd256	-0.03413614
149	0xbbb9df67	-0.0056723836
150	0x3c073986	0.008253461
151	0xbb9285d1	-0.0044715186
152	0xbaf3391f	-0.0018556452
153	0x3c9b474a	0.018954892
154	0x3c97b7f4	0.018520333
155	0x3afd4fd7	0.0019326162
156	0xbcd5007c	-0.026001208
157	0xbc463fec	-0.012100201
158	0xbc491660	-0.012273401
159	0xbca62c64	-0.020284839
160	0x38538b24	5.0435905e-05
161	0x3cc7c233	0.024384594
162	0xbb8f8a82	-0.004380525
163	0x3cbc4fe8	0.022987321
164	0xbc27a5ab	-0.010232369
165	0x3c6a8b07	0.014315373
166	0x3c3355a8	0.010945715
167	0xbc1de47e	-0.009636996
168	0xbbb38ec6	-0.0054796664
169	0x3cf2eeec	0.029654942
170	0xbcd19896	-0.025585454
171	0xbd6f4df9	-0.05842397
172	0xbd0059d3	-0.031335663
173	0xbd69e93e	-0.057107203
174	0xbd1cf87c	-0.03832291
175	0xbd8d2fa9	-0.06893856
176	0xbcbc12f4	-0.022958256
177	0xbd96093b	-0.07325979
178	0xbda8339e	-0.0821297
179	0x3a1b4160	0.00059225224
180	0x3b0876dc	0.0020822799
181	0x3b90d5ff	0.0044200416
182	0x3c03ecd1	0.008052067
183	0xbce5b920	-0.028042376
184	0xbb2c85f1	-0.0026324952
185	0x3cd864f3	0.026415324
186	0xbc11dd9e	-0.008902935
187	0x3b93bac3	0.0045083477
188	0x3c138242	0.009003224
189	0x3d02bbef	0.03191751
190	0xbc3ae8fc	-0.011408087
191	0x3bc1b934	0.0059119705
192	0x3a8e67a1	0.0010864624
193	0x3d01b91f	0.031670686
194	0xbb00a4e3	-0.001962953
195	0x3cff8065	0.031189153
196	0x3c6d5955	0.01448663
197	0x3a88ce69	0.0010437492
198	0x3d215834	0.039390758
199	0x3c4f9213	0.012669104
200	0xbce8e418	-0.028429076
201	0xbc84a729	-0.01619299
202	0xbb8e0111	-0.004333623
203	0xbc8a773a	-0.016902555
204	0xbc3c2a00	-0.011484623
205	0xbd251068	-0.04029885
206	0xbd275162	-0.040849097
207	0xbd4e837e	-0.05041837
208	0xbc61ef01	-0.013789893
209	0xbd8ceee2	-0.06881501
210	0xbda68895	-0.0813152
211	0xbd3f76d3	-0.04674418
212	0xbca257a2	-0.019817177
213	0x3b59d31d	0.0033237406
214	0xbc73db55	-0.014883836
215	0xbce31ae8	-0.02772279
216	0x3c5cd8fc	0.0134794675
217	0x3c6fc1bc	0.014633592
218	0x3c66e4b5	0.014092614
219	0x3af464e8	0.0018645795
220	0x3c88ee49	0.016715186
221	0x3cc9d1f0	0.024636239
222	0x3ceb98fd	0.028759474
223	0x3bd6ddfd	0.006557225
224	0x3ce16b6f	0.027517049
225	0xbcd03b6b	-0.025418958
226	0x3c23ff3e	0.010009585
227	0x3c0342ad	0.008011502
228	0xbb53c4b3	-0.0032313287
229	0x3bd1a9f3	0.0063984334
230	0x3cd62668	0.02614136
231	0x3ae2e25e	0.0017309894
232	0xbc6c0233	-0.014404821
233	0xbc9c67bb	-0.019092431
234	0x3bbaebd8	0.0057043843
235	0xbcd589c4	-0.026066668
236	0xbd07ecf3	-0.033184957
237	0xbcc9abe1	-0.024618091
238	0xbd1509f0	-0.03638643
239	0xbd35cdb2	-0.04438562
240	0xba7457cc	-0.0009320944
241	0xbc765ac0	-0.015036285
242	0xbd358784	-0.04431869
243	0xbc83e3da	-0.016099859
244	0xbcacf8a1	-0.02111465
245	0x3c83e0d8	0.016098425
246	0xbc9b344e	-0.01894584
247	0xbcff7530	-0.031183809
248	0x3b705c0e	0.0036675963
249	0x3c902f92	0.017600808
250	0xbb23965a	-0.0024961443
251	0x3bd9967a	0.0066402527
252	0x3c4d7b21	0.012541563
253	0xbb022162	-0.0019856323
254	0x3b32e445	0.0027296704
255	0x3cd860dd	0.026413376

fc1.bias f4 [100]
0	0x3cba26fb	0.022723665
1	0x3d0e8e27	0.034803536
2	0xbc62f63c	-0.013852652
3	0xba127ebe	-0.0005588344
4	0x3c93affc	0.018028252
5	0x3bcd5124	0.006265776
6	0x3c2d1b61	0.01056561
7	0x3c4112e5	0.01178429
8	0x3cc6aa7d	0.024251217
9	0x3d408ee7	0.047011282
10	0x3b3fb233	0.0029250502
11	0xbc9dea9a	-0.019276906
12	0x3c137932	0.009001063
13	0x3c925076	0.017860632
14	0x3bf3cef6	0.007440443
15	0xbcfc36f0	-0.030787915
16	0x3d2d867d	0.042364586
17	0x3d3f830a	0.046755828
18	0x3c57cc6c	0.013171297
19	0xbcef1da1	-0.029188933
20	0x3b5f9e22	0.0034121354
21	0xbc31e92e	-0.010858817
22	0xbcc3886f	-0.023868768
23	0x3c5f2ab8	0.013621025
24	0xbceacbf8	-0.028661713
25	0xbc2a6102	-0.010399105
26	0xbc90b9eb	-0.017666778
27	0x3d565c40	0.05233407
28	0xbc0284f3	-0.007966268
29	0xbcf5905b	-0.02997606
30	0x3a9729c1	0.0011532829
31	0xbae8f39c	-0.0017772797
32	0x3a4c3346	0.0007789623
33	0x3c616c22	0.013758691
34	0x3d31f6e5	0.043448348
35	0xbc235477	-0.009968868
36	0x3cef38ac	0.029201828
37	0xbca6ddaa	-0.02036937
38	0x3c88126f	0.016610352
39	0x3c223e54	0.0099025555
40	0xbb340a02	-0.0027471785
41	0xba042b55	-0.00050418574
42	0x3bb8e69d	0.0056427256
43	0x3cd0384f	0.025417475
44	0x3d0e4aa3	0.034739148
45	0x3acd896d	0.0015681215
46	0x3d65e0e6	0.056122683
47	0xbb6e80bf	-0.0036392657
48	0xbbf5fe8d	-0.0075071515
49	0x3c1b8b3d	0.009493646
50	0xbcfadc2a	-0.03062256
51	0xbd13403c	-0.03594993
52	0x3c1475e1	0.009061308
53	0xbc7985c4	-0.015229646
54	0xbbea4ac0	-0.007150024
55	0x3be0979e	0.0068540117
56	0xbcc8f04f	-0.02452865
57	0xbcd5bea7	-0.026091887
58	0xba74ce0e	-0.0009338566
59	0x3b740b7f	0.0037238298
60	0xbc7cd1d7	-0.015430889
61	0xbc64acc5	-0.013957207
62	0x3c8f5f02	0.017501358
63	0x3cf04df4	0.029334046
64	0xbd2ce762	-0.04221285
65	0x3b59e40d	0.00332475
66	0x3c5130bc	0.012767967
67	0x3cef6d10	0.02922681
68	0xbc88604b	-0.016647479
69	0x3b8d0734	0.004303837
70	0x3b95de5a	0.0045736255
71	0x3cde1a7e	0.027112242
72	0xbc8d3fbb	-0.017242303
73	0x3d864942	0.065569416
74	0x3bcb6a30	0.006207727
75	0xbaaaa847	-0.0013020121
76	0x3cdb7ae0	0.02679199
77	0xbcc24afb	-0.023717394
78	0xbc4ad54d	-0.012379956
79	0x3c915343	0.017739898
80	0xbadcb1de	-0.0016837677
81	0xbc540685	-0.0129410075
82	0xbcf0a553	-0.029375708
83	0x3c4e31dc	0.01258513
84	0xbcee09ab	-0.029057344
85	0x3c2ed4cd	0.010670853
86	0xbc523905	-0.012830977
87	0xb7986d26	-1.8170638e-05
88	0xbcd356cd	-0.025798226
89	0xbbbae0fb	-0.0057030893
90	0x3ceb955c	0.028757744
91	0x3d245648	0.040121347
92	0xbd062016	-0.032745443
93	0x3c9ecd46	0.019384991
94	0x3cd819b5	0.026379446
95	0xbcbc9c15	-0.023023644
96	0x3ce46a48	0.02788271
97	0x3d19430e	0.037417464
98	0xba82e0a6	-0.0009985163
99	0x3c454ac4	0.012041751

fc2.weight f4 [5, 100]
0	0xbe14d539	-0.14534463
1	0xbdda9b60	-0.10674167
2	0x3da0ffcb	0.07861289
3	0xbc11d6ab	-0.0089012785
4	0xbd52bdc7	-0.051450517
5	0x3d76cc67	0.060253527
6	0xbcc96fc6	-0.02458943
7	0x3e448920	0.19192934
8	0xbcb52e90	-0.02211693
9	0xbed05c55	-0.40695444
10	0x3d1fbd5a	0.03899894
11	0xbd2a99a2	-0.041650422
12	0xbd9bc8bb	-0.07606646
13	0x3daebbeb	0.08531936
14	0x3c336e02	0.010951521
15	0x3dcaa9a8	0.098956406
16	0x3d07a705	0.033118267
17	0xbe1567e9	-0.1459042
18	0xbcd39a51	-0.02583042
19	0xbdb496e1	-0.0881784
20	0xbdf4f87c	-0.11961457
21	0xbdb98288	-0.090581
22	0xbc424922	-0.0118582565
23	0x3d072e2e	0.033003025
24	0x3d389f9b	0.045074087
25	0x3c1e19f1	0.00964974
26	0x3d4b40e0	0.049622416
27	0xbe27ba59	-0.1637968
28	0x3dc70741	0.097181804
29	0x3dc7d8cd	0.09758148
30	0xbe80f5b7	-0.25187466
31	0xbc13abd7	-0.009013138
32	0xbb64b824	-0.0034899795
33	0x3dfe0c20	0.124046564
34	0xbeaccfc1	-0.33752254
35	0x3d7f4b0f	0.06232744
36	0xbc8c84f8	-0.017153248
37	0x3d5d8b92	0.054088183
38	0x3d97d45b	0.074135505
39	0x3d379ad5	0.044825394
40	0x3d251826	0.040306233
41	0x3d16e8da	0.03684316
42	0x3df551c8	0.11978489
43	0xbdb85177	-0.08999913
44	0xbe8c6f32	-0.27428585
45	0xbea8fab4	-0.3300377
46	0xbdb1f5c0	-0.08689451
47	0xbe4ddadd	-0.20103021
48	0xbe106249	-0.14099993
49	0xbd463c96	-0.048397623
50	0xbd7028af	-0.05863255
51	0xbe49b05e	-0.19696185
52	0xbdb84f89	-0.08999545
53	0xbd81ad96	-0.06331937
54	0xbc58bd70	-0.013228759
55	0x3e4610e3	0.1934238
56	0x3dbc0728	0.091810524
57	0x3e4f7bdf	0.20262097
58	0x3dc85b83	0.097830795
59	0x3d6c8457	0.057743397
60	0xbdd088fb	-0.10182377
61	0x3cd11db1	0.025526853
62	0x3e1f1379	0.15534772
63	0xbca3d8aa	-0.020000774
64	0x3d8e19b1	0.06938494
65	0x3da2255a	0.079172805
66	0x3d9fc154	0.07800546
67	0xbda93ca3	-0.08263519
68	0xbd78dd04	-0.060757652
69	0xbc559b81	-0.013037563
70	0x3da6ccd6	0.08144538
71	0x3cd2bde4	0.025725313
72	0xbdb3a2a9	-0.08771259
73	0xbdafc85a	-0.08583136
74	0xbdb5f814	-0.08885208
75	0xbd3bf93d	-0.04589199
76	0x3cd17218	0.0255671
77	0x3c4bdf6b	0.012443404
78	0x3e0f9732	0.1402252
79	0x3c971cb8	0.018446311
80	0xbe427033	-0.18988113
81	0xbd741c96	-0.059597574
82	0x3e376ce3	0.1791263
83	0x3d990c33	0.0747303
84	0x3d765ee2	0.06014908
85	0xbec1879e	-0.3779878
86	0x3dccbc3d	0.09996841
87	0xbd05f056	-0.032699905
88	0xbcdbf2bf	-0.026849149
89	0x3d4babb3	0.049724292
90	0xbd09158d	-0.033467818
91	0xbd55e066	-0.052215956
92	0x3dba6c36	0.09102671
93	0xbda27d4b	-0.07934054
94	0x3d91eb4c	0.071249574
95	0x3c8d5831	0.017253967
96	0xbdc22b0d	-0.094808675
97	0x3e1264e8	0.14296305
98	0xbcd34bc7	-0.02579297
99	0x3d4fbdd5	0.050718147
100	0xbe27392e	-0.16330406
101	0xbdf97696	-0.121808216
102	0xbd25da4a	-0.04049138
103	0x3d790748	0.06079796
104	0x3d085ada	0.033289768
105	0xbe9859bf	-0.2975597
106	0x3ca0b119	0.019615697
107	0xbe4af6f8	-0.19820774
108	0xbd892578	-0.066966
109	0xbc9589f7	-0.018254263
110	0xbd96061c	-0.07325384
111	0xbda487e8	-0.080337346
112	0xbc45ef80	-0.012081027
113	0xbd90e13e	-0.070742115
114	0x3e043ef2	0.12914637
115	0x3e106377	0.14100443
116	0xbe5121b4	-0.20423013
117	0x3db1230d	0.086492635
118	0x3e2d5729	0.1692778
119	0x3da78c87	0.081811
120	0x3d8038db	0.06260844
121	0x3d5156d5	0.0511082
122	0xbccbe6cf	-0.024890332
123	0xbd4d2ae7	-0.050089743
124	0xbdb81888	-0.08989054
125	0x3c1462ac	0.009056728
126	0x3db08cf5	0.086206354
127	0x3c0fec00	0.008784294
128	0xbe0d3cbf	-0.13792704
129	0xbd684f8c	-0.056716487
130	0xbdf49759	-0.1194293
131	0x3e4103c8	0.18849099
132	0x3cb02ced	0.021505797
133	0xbcb34aa4	-0.021886177
134	0x3d373c53	0.044735264
135	0x3d918e66	0.071072385
136	0x3d328eec	0.043593332
137	0xbd074050	-0.033020318
138	0x3d82958b	0.06376179
139	0x3d328e02	0.04359246
140	0x3e2345f6	0.15944657
141	0x3de0221b	0.10944005
142	0xbd9ac5a4	-0.07557228
143	0xbee7a108	-0.45240045
144	0x3df00fb8	0.11721748
145	0x3e4aea16	0.19815859
146	0xbe8722c1	-0.26393703
147	0x3e565bf8	0.20933521
148	0x3c4e61f9	0.012596601
149	0xbd4147c3	-0.047187578
150	0x3e17077d	0.1474895
151	0x3e22fa87	0.15915881
152	0xbbe53052	-0.0069942856
153	0xbd5a84e0	-0.053349376
154	0x3d4fd036	0.050735675
155	0xbec72375	-0.3889424
156	0x3c3142d3	0.010819155
157	0x3dc62c5c	0.0967643
158	0x3e2504ae	0.16115066
159	0x3c17799f	0.009245305
160	0xbd42081a	-0.047371008
161	0x3dbbbca4	0.0916684
162	0xbe9fd992	-0.3122068
163	0xbec51cc5	-0.38498512
164	0x3d84f3ea	0.064918354
165	0xbcafd644	-0.021464474
166	0xbe8d3806	-0.27581805
167	0xbd9b423d	-0.07580993
168	0x3d0048ec	0.031319544
169	0x3c118bef	0.00888346
170	0x3d51c06f	0.05120891
171	0xbd0f92f4	-0.035052255
172	0x3d110e25	0.03541388
173	0xbe975003	-0.29553232
174	0x3d8b4490	0.06800187
175	0x3c8dc6c5	0.017306695
176	0x3d829bfb	0.06377407
177	0x3c3388ba	0.010957891
178	0x3dfcbbe0	0.12340522
179	0xbe9fb627	-0.3119366
180	0x3df4b877	0.119492464
181	0x3c1f5798	0.009725474
182	0x3e1783a8	0.14796317
183	0xbcd5e0d8	-0.02610819
184	0x3dc08179	0.09399695
185	0xbdcbcd90	-0.09951317
186	0x3ca964ff	0.020678042
187	0xbe022f61	-0.12713386
188	0x3daf42b7	0.08557647
189	0x3cb29717	0.02180056
190	0x3dcc3052	0.09970154
191	0xbe9a1872	-0.30096775
192	0x3ce1cf83	0.02756477
193	0xbe8ec042	-0.27881056
194	0xbd1873e5	-0.0372199
195	0x3d3cb6d7	0.046072807
196	0xbeaf15ba	-0.34196264
197	0xbdc1257f	-0.0943098
198	0x3d290fac	0.04127471
199	0xbe97376d	-0.29534474
200	0x3c7f78bd	0.015592751
201	0xbc7f67d0	-0.015588716
202	0x3da665e3	0.08124902
203	0x3e884a74	0.26619303
204	0x3c99e22c	0.018784605
205	0x3e7d8fd6	0.247619
206	0xbcb0dd33	-0.021589851
207	0xbe6c1329	-0.23054184
208	0xbbfc8115	-0.0077058175
209	0x3ec754c8	0.3893187
210	0xbcd28df8	-0.025702462
211	0xbe1af62e	-0.15132973
212	0xbe16e040	-0.14733982
213	0x3d0fd3ce	0.035114102
214	0xbd6e88c6	-0.058235906
215	0x3df10ca4	0.11769989
216	0x3e1cc736	0.15310368
217	0x3eef7f04	0.46776593
218	0x3e06a0ae	0.13147232
219	0xbcd2b795	-0.025722304
220	0xbd0b1359	-0.033954
221	0x3d48bf42	0.049010523
222	0xbe24d0ee	-0.16095325
223	0xbd95d83a	-0.073166326
224	0xbe3755c3	-0.17903809
225	0xbdb21114	-0.08694664
226	0xbd2d778d	-0.04235034
227	0x3e8559a2	0.26044947
228	0xbe22d0e2	-0.15899995
229	0xbe335380	-0.17512321
230	0x3b5efd2b	0.0034025412
231	0x3ccc4292	0.024934087
232	0x3d2a50e0	0.041581035
233	0x3e923cd2	0.28562027
234	0x3ef1c284	0.47218716
235	0x3d8bc6b2	0.068250075
236	0xbd3e098a	-0.046395816
237	0x3d1d4710	0.03839785
238	0xbd4f7045	-0.050644178
239	0xbd30e031	-0.043182556
240	0x3ccb7c52	0.024839554
241	0x3e162ab4	0.14664727
242	0x3e42e1e9	0.1903149
243	0x3e738ea5	0.23784883
244	0x3e2a0854	0.1660474
245	0x3d5ed64b	0.054403584
246	0x3e0d6591	0.13808276
247	0xbc0de994	-0.008661646
248	0xbdebd942	-0.11516048
249	0xbbf19a44	-0.007373126
250	0xbac54bb5	-0.001505247
251	0xbe5bb67a	-0.21456328
252	0xbdca7c5a	-0.098869994
253	0x3c900d94	0.0175846
254	0x3d6dc7b2	0.058051772
255	0x3e2cfdc1	0.16893674

fc2.bias f4 [5]
0	0xbd076be3	-0.033061873
1	0xbdd82266	-0.10553436
2	0xbbfa01c8	-0.007629607
3	0x3d0b84b1	0.03406209
4	0x3dba7283	0.091038726
