project/weights/acc_91.88.ckpt (torch_old, 412820 bytes, 4 tensors)

fc1.weight f4 [100, 1024]
000000 97 de 16 3c cf c2 63 3c 39 62 eb 3c 85 cc ba 3c
       0.009208343 0.013901426 0.02873336 0.0228026
000010 81 63 f7 3c 23 95 48 3c 7b 2a 8f bc 33 e7 e5 3c
       0.030198814 0.012242588 -0.017476311 0.028064346
000020 7d 5d 7a bc 5d 00 c0 bc a1 70 90 3c 28 27 c1 3b
       -0.015281078 -0.023437673 0.01763183 0.0058945604
000030 2f bd b6 bc a1 b1 7a bc 21 59 ef bc ca a0 99 3c
       -0.022307007 -0.015301139 -0.029217305 0.018753428
000040 4c 8a 99 bc a3 bc 16 3c 17 ff 86 bc 98 3a c3 bc
       -0.018742703 0.009200248 -0.016479058 -0.02383165
000050 54 83 b2 3c 7d 87 61 bc 60 61 d4 3b 51 69 ca 3c
       0.021791138 -0.013765213 0.0064813346 0.024708422
000060 8f 94 bb 3c ab 71 b1 bc 73 8e c9 bc a9 a7 90 bc
       0.022897987 -0.021660646 -0.024604058 -0.017658072
000070 45 2d c1 bc 11 a0 10 bc 21 7e 12 bc 49 b1 f5 3a
       -0.023581157 -0.008827225 -0.008941204 0.0018744852
000080 89 aa c4 3a 5b a6 07 3c 0b e8 43 3c 61 fc dc 3c
       0.0015004437 0.008279408 0.011957179 0.026975812
000090 4d 5d dd 3c d3 81 3b 3c 7e d6 c1 3c 1c 72 cc 3c
       0.027022028 0.011444527 0.023661848 0.024956755
0000a0 e1 52 76 bc 03 f2 bf 3c 57 cc 28 3b 08 84 ff bb
       -0.015034408 0.02343083 0.0025756562 -0.007797722
0000b0 89 19 f9 bc e4 95 80 3a 9b fb b9 bb c4 31 d2 bc
       -0.030407684 0.0009810296 -0.0056757457 -0.025658496
0000c0 b8 7e a5 bc 52 7f f2 3c c9 02 d0 3c 94 d6 a9 bb
       -0.020202026 0.029601727 0.025391953 -0.0051830504
0000d0 7b da 02 bc 36 b4 30 3b 0d f8 c8 bc 2f b3 fc 3b
       -0.00798666 0.0026962883 -0.024532342 0.00771179
0000e0 96 d0 24 3b fb 15 92 bc 07 d9 60 3c d6 5f 41 3b
       0.002514874 -0.017832747 0.013723618 0.0029506586
0000f0 73 3a 8d 3c 01 06 d3 3c 95 38 88 bb e8 1f ac bc
       0.017239785 0.025759699 -0.0041571357 -0.021011308
000100 f6 bc 52 3b 11 41 ea 3c b9 28 9e 3c 3a a6 79 bb
       0.0032156087 0.02859548 0.019306527 -0.0038093464
000110 3b 4d ed bc f5 6d 91 ba f5 ed 21 bc 05 3d 0f bc
       -0.02896749 -0.0011095392 -0.0098833935 -0.0087425755
000120 1d 27 88 bb 19 b4 ec bc d6 86 02 bd bb 17 0c 3c
       -0.0041550533 -0.028894471 -0.03186687 0.00855058
000130 17 fb c7 3c 13 2d 83 bb 87 df 36 3b da 84 dc bc
       0.024411721 -0.004003176 0.0027904229 -0.026918817
000140 8e 57 f3 3c 18 dc 96 bb 55 87 45 bc 2c 54 af 3a
       0.029704835 -0.004603874 -0.012056191 0.0013376526
000150 50 bc cb 3c 3b 7e e4 3c ab b2 bb bc 5b 59 89 3c
       0.024870068 0.027892223 -0.022912344 0.01676624
000160 78 1a 9f bb af 39 9d 3c d9 db ab 3c 2b d2 46 3c
       -0.0048554502 0.019192545 0.020978855 0.012135069
000170 cd be ef 3c 01 58 a6 bc 39 dd 59 bb 50 b5 f1 bc
       0.029265786 -0.020305635 -0.0033243431 -0.029505402
000180 de 7b 8e 3c e6 ca f4 3c 3b 29 e2 3c 3f 8b 48 3c
       0.017393049 0.029881906 0.02760755 0.01224023
000190 fb db 14 3c 38 58 1b bb 90 04 e8 bc e9 cc b8 3a
       0.009085651 -0.0023703706 -0.028322488 0.0014099154
0001a0 08 7c dd 3c 69 72 47 bc 39 10 d6 3c ef 91 5c 3c
       0.027036682 -0.012173274 0.026130782 0.013462528
0001b0 41 4e bc bc 6f b3 bd bc 2d 03 66 bc 0b ff 27 3c
       -0.022986533 -0.02315685 -0.014038843 0.010253678
0001c0 50 46 a1 bb 98 8a db bb db 4c 40 3c 10 30 b4 3c
       -0.004921712 -0.0066998713 0.011737074 0.021995574
0001d0 19 f5 12 bc 9f 6d 8b 3c c3 8c 03 bd dd 09 9a bc
       -0.008969569 0.017020045 -0.032116663 -0.018803531
0001e0 21 1c c7 bc d2 eb b7 b8 09 2f c9 bc fc 3d 7a 3c
       -0.024305405 -8.770045e-05 -0.02455856 0.015273567
0001f0 55 78 d1 bc 48 8d 8d 3b e0 d8 d9 bc e8 e2 d5 bc
       -0.025570074 0.0043198206 -0.026592672 -0.026109174
000200 98 5e c0 bb 52 f6 b2 bc b3 7e bd bc 2f e9 9b bc
       -0.0058706515 -0.02184597 -0.023131704 -0.019032089
000210 75 67 2c bc 96 57 16 3b 11 77 76 bc ec df 90 3b
       -0.010522713 0.002294039 -0.015043036 0.004421225
000220 04 d6 85 3c 0b c2 d7 3c 46 ca 7c 3c af 30 37 3c
       0.016337402 0.026337644 0.015429085 0.011181041
000230 28 19 ee bb 46 48 80 bc 9f bd 35 3c a4 24 b7 3c
       -0.0072661825 -0.015659463 0.0110925725 0.022356339
000240 c2 0e ee bc 79 81 99 3c 0a 0e ed bc 3b ec 4d 3c
       -0.029059771 0.018738495 -0.028937358 0.012568529
000250 1b d6 29 3c c7 60 f0 3c 6d 6e 10 bc ef 3c d0 3c
       0.010365988 0.029343022 -0.00881539 0.02541968
000260 48 f9 d0 3b 95 ba 87 bb 53 75 0c 3c 9b 81 e7 bc
       0.006377373 -0.0041421154 0.008572894 -0.028260043
000270 a8 ed b7 bc b7 ba 54 3c 42 5b a6 3c 66 0a b8 3a
       -0.02245219 0.012983969 0.020307187 0.0014041185
000280 39 f1 6c bb f0 cd ab bb 5e 96 dc bc 23 3d 34 39
       -0.0036154522 -0.0052430555 -0.02692717 0.00017188913
000290 3a 9f 5a bb 86 37 39 3b 41 51 ad bc 20 db d9 3c
       -0.0033359067 0.0028261854 -0.021156909 0.026593745
0002a0 2c 45 d1 bb f8 5f e5 bb 99 51 0d bc 93 15 f8 3c
       -0.0063864198 -0.0069999658 -0.008625411 0.030283725
0002b0 a5 d8 e8 bc e4 9c 27 ba 3f e6 bc 3c be 55 fe bc
       -0.028423617 -0.0006393923 0.023059009 -0.031046744
0002c0 6a 7b a9 bc 0a c4 73 bb 50 da 9c bc cf 04 1a 3c
       -0.020688731 -0.0037195706 -0.019147068 0.0094005605
0002d0 d7 7e 12 3c c9 01 6b bc fd ff a8 3c f7 b3 88 3c
       0.008941374 -0.014343687 0.020629877 0.016687376
0002e0 2d 58 b5 3a e3 ca 2e 3c fb 30 e0 bc 4f 29 78 3c
       0.0013835483 0.010668489 -0.027367106 0.0151465675
0002f0 b3 5d 41 3c fa 65 9d 3c 4a 8c 97 bc ab 10 a8 bc
       0.011802125 0.019213665 -0.018499512 -0.02051576
000300 be f3 84 bb a8 66 f1 bb 88 e6 98 3c e0 f7 b6 bb
       -0.0040573766 -0.007366974 0.018664613 -0.005583748
000310 77 ff a5 bc cd 74 d4 3c c7 41 8b bc 97 e1 40 3c
       -0.020263417 0.025934601 -0.016999139 0.011772535
000320 dd 3a 0e bb cd 9a db 3c f0 e9 fd 3b 62 f6 72 3c
       -0.0021702566 0.026807213 0.007748835 0.01482925
000330 fb 36 fe bc cb 1e f6 bc 35 3c ce bc b2 73 b3 3c
       -0.031032076 -0.03004398 -0.025175193 0.021905754
000340 56 f3 ef bc bd d2 ba 3c 36 1f ee bc 27 a9 14 3c
       -0.029290836 0.022805566 -0.029067617 0.009073532
000350 78 9c a3 3b f5 cc af bc 47 eb e9 3a 53 9f 8c bc
       0.0049930178 -0.021460036 0.0017846607 -0.017165815
000360 83 c3 32 3c a7 89 aa 3c ac 3d b7 3c b6 c0 03 3b
       0.010910871 0.02081759 0.022368275 0.0020103878
000370 84 c2 81 bb f3 42 80 bc f9 37 c4 3c a3 88 cf 3c
       -0.0039599556 -0.015656924 0.023952471 0.025333708
000380 38 5d 98 bc 50 41 a8 3c 98 a5 9c 3c 5a 8e 2e bc
       -0.018599138 0.020538956 0.01912193 -0.010654056
000390 e5 24 a9 3c 91 37 e4 bc 00 13 d3 3b fa 12 00 bd
       0.020647475 -0.027858527 0.006441474 -0.031268097
0003a0 d7 36 be 3c 9e 28 cd bc 6a cb 7f bb 73 57 a6 bc
       0.023219509 -0.025043782 -0.0039031156 -0.02030537
0003b0 25 4b 8a bc 6c 64 8a 3a e7 13 fa 3b 56 49 b5 bc
       -0.016881535 0.0010558493 0.007631767 -0.022129696
0003c0 18 16 ee bc 91 bc 16 bc 24 fc 79 3c fb 8d 8f bc
       -0.02906327 -0.009200231 0.015257869 -0.017523756
0003d0 a0 10 e1 3b 79 b4 1f bc 06 a3 1d 3b 2c fc 08 bc
       0.006868437 -0.009747618 0.0024053468 -0.008360904
0003e0 b0 fb 91 3c c5 22 2f bc 36 c2 72 3b 45 0b a6 bc
       0.01782021 -0.010689442 0.0037042028 -0.020269046
0003f0 ef 7b e1 3c 08 83 f3 bb 8f 76 b3 3c b3 f5 58 3c
       0.027524916 -0.0074313916 0.02190712 0.013242173

fc1.bias f4 [100]
000000 01 71 bf bc 8c 92 77 3c d6 98 08 3b a5 d1 a3 ba
       -0.023369314 0.015110623 0.002084305 -0.0012498392
000010 db 4b 3b 3d 4c 22 b0 bc 09 72 12 3d ea 9c 25 3d
       0.04572664 -0.021500729 0.035753284 0.040432848
000020 5b 12 de 3c 0b 04 01 3d a7 65 5c 3c a1 f4 eb 3b
       0.027108362 0.031497996 0.01345197 0.007200793
000030 c0 8b 81 3c 87 91 a1 bc d8 21 a1 3b 71 4a a6 bc
       0.015813708 -0.019722713 0.0049173646 -0.020299168
000040 78 ca 60 3d b2 c7 b2 3c be 2e f2 3b 99 22 19 3d
       0.05488059 0.021823738 0.007390826 0.03738651
000050 9e 72 7d bc 6e 1f 37 3d b5 5d 1a 3d 4a a9 f3 bc
       -0.015469221 0.044707708 0.037687022 -0.02974381
000060 04 35 01 bc 8b d4 6b 3c 22 18 e9 bc 16 e6 b6 bc
       -0.007886175 0.014393936 -0.02845389 -0.02232651
000070 3b 88 5c bb 03 62 b7 3c 44 2a 3c 3d 12 1d 9f bc
       -0.0033650536 0.022385603 0.045938745 -0.019423041
000080 cf 18 9d 3c d1 e6 21 bd fb 6a fb bc f8 32 62 bc
       0.019176869 -0.039526764 -0.03069066 -0.013806097
000090 18 1f f7 bc 9e 53 c1 bc e8 7f 3e 3d 2e b1 bf bc
       -0.030166194 -0.023599442 0.0465087 -0.023399916
0000a0 a9 b9 23 bb 16 69 16 3c c6 f9 dc 3c b0 d7 18 bc
       -0.0024982488 0.009180328 0.02697457 -0.009328768
0000b0 61 0a 30 3c 2b 1d 3e 3d 58 3e ea 3c 9a f5 30 3c
       0.010744662 0.046414535 0.028594181 0.0108007435
0000c0 10 08 89 bc cf d0 15 3b 25 5e c2 bc 8d 8a 28 3d
       -0.016727477 0.0022860055 -0.023726532 0.041147757
0000d0 41 4d 0a bd aa 35 26 3c ab 56 70 3c 39 29 80 bc
       -0.03376508 0.01014463 0.014669101 -0.015644656
0000e0 73 37 76 3c 1b 52 d9 3c fe 29 a6 3c 9e 7a 04 3c
       0.015027869 0.026528409 0.020283695 0.008085875
0000f0 ac c4 b0 bb d2 ff 87 3c 13 4e b9 3c 5a 80 0b 3b
       -0.005394539 0.016601477 0.022620237 0.002128622
000100 a4 87 53 3d 8e b4 53 3c ac c8 0c 3c 2d 14 d5 bc
       0.05164303 0.012921466 0.008592766 -0.026010597
000110 10 0e 0a bc 08 36 59 bc 14 60 14 3d 88 dd 38 3c
       -0.008426204 -0.013257511 0.03622444 0.011283286
000120 f9 f4 08 bc 77 f8 b8 bb 48 81 4c bc 09 18 fc bb
       -0.008359187 -0.0056448537 -0.012481995 -0.007693295
000130 b0 21 08 bb 51 e4 4c 3c ab 4a 72 bc c5 ef d8 3c
       -0.0020772032 0.012505607 -0.01478831 0.026481519
000140 72 4d a3 bc a5 23 d2 3b c9 ab 33 3d d4 1d cf bc
       -0.01993439 0.0064129406 0.043865 -0.025282778
000150 9d 88 53 3d 8d fc 1a bc 55 67 ff 3b c5 12 d1 3c
       0.051643956 -0.009459627 0.0077943006 0.025521645
000160 e8 84 11 3d 82 c4 8f bc 8c 11 55 3c 75 29 1e 3d
       0.03552714 -0.017549757 0.013004672 0.038613755
000170 9f d6 46 3c e1 1a 1d bd f8 0a 94 bc ac f4 8f bc
       0.012136131 -0.03835571 -0.018071637 -0.017572723
000180 80 5a c3 3c 54 df 0f 3d 7e 4d a2 3a 1d 7b 8e bc
       0.023846865 0.03512509 0.0012382714 -0.01739269

fc2.weight f4 [5, 100]
000000 b6 b2 17 bd 18 bc 74 bc 0a e0 c3 bd ae 89 4a 3b
       -0.037035666 -0.014937423 -0.095642164 0.0030904817
000010 01 c7 be be 02 cf de bc b7 51 d4 3d 1b 27 3a 3d
       -0.37261203 -0.027198318 0.10367148 0.04544745
000020 d7 ea 7a be 4c 46 36 3e 09 ca 45 be 21 cf b8 3d
       -0.24503647 0.17800254 -0.19315352 0.09023882
000030 a5 7f 76 3c 5e d8 ab 3c bd d3 fd 3d ce 42 8c bd
       0.015045081 0.020977195 0.123939015 -0.068486795
000040 f6 70 51 bc 1d ae bd 3d 10 6a 22 be f8 c5 c8 bd
       -0.01278328 0.09261725 -0.15860772 -0.098033845
000050 49 7b 5f 3c ce 3d 0b 3d 01 ad 48 be 67 8e b8 bd
       0.013640233 0.03399449 -0.19597246 -0.09011536
000060 2b a2 04 be de 8f 52 be 2b d5 21 be 00 b6 3f b9
       -0.12952487 -0.20562693 -0.15803973 -0.0001828298
000070 1e 42 4b 3d 70 a2 89 bd db 4f cc 3d 80 82 cd 3b
       0.0496236 -0.067204356 0.09976169 0.0062716603
000080 81 27 e2 bd 42 bf 3f bd 31 a7 96 3d f6 f6 81 3d
       -0.11042691 -0.046813257 0.07356108 0.06345932
000090 6a 79 97 3d 76 48 e4 3c ed d6 b5 3d 9f 0f c6 bd
       0.07396205 0.027866583 0.088788845 -0.09670948
0000a0 ef 1e a8 3d 65 40 be bd 4a bd 28 bd 38 65 79 bd
       0.08209025 -0.09289626 -0.041196145 -0.060887545
0000b0 8d cd 9b 3d 89 f2 5d 3e e0 63 dc 3b 9b de 3f be
       0.07607565 0.21674551 0.006725773 -0.18737261
0000c0 88 c2 c0 bc 0d 9a 93 3c 23 1d 28 be cd e4 95 3d
       -0.02353026 0.018017793 -0.16417365 0.07319031
0000d0 3e 8a 12 3d 82 6c 6c be cb bf c4 bd 2e b5 03 bb
       0.03577637 -0.23088267 -0.09606894 -0.0020097005
0000e0 8e 7d 9c bd d2 5f 0b 3e 28 56 92 bd a0 df 4b 3e
       -0.07641135 0.13610771 -0.07145339 0.19909525
0000f0 51 a9 80 bd 6c 24 71 3d 65 ac 99 bd dd 36 35 be
       -0.062822945 0.058872625 -0.07503585 -0.1769671
000100 65 0c f4 bd 69 2b 85 3d 10 cd 00 bd 8a ae 96 ba
       -0.119164266 0.065024205 -0.031445563 -0.0011496108
000110 ce f7 c1 bd f0 69 71 3c b4 30 2a 3e 62 97 da bd
       -0.09471093 0.01473473 0.16620141 -0.10673405
000120 fd 6a 8b 3d 6f c8 03 3d cc 89 dc 3c fc 4d 6e be
       0.06807516 0.03217357 0.026921175 -0.23271936
000130 5c b1 f5 3d 8e e3 69 bc 56 3a 45 bc 47 de 74 bd
       0.11996719 -0.014275445 -0.012037834 -0.059782293
000140 18 26 82 bc b0 1c 6b be 47 e7 c2 bd 25 ef 62 3b
       -0.015887305 -0.22960162 -0.09516769 0.0034627405
000150 d8 b8 ae 3d f4 af ce bd dc c8 91 3d 70 d2 78 be
       0.0853135 -0.10092154 0.07118389 -0.24299026
000160 59 0e 27 3a ca b7 87 3d 88 21 c4 bd b3 da 97 ba
       0.00063726824 0.06626852 -0.09576708 -0.0011585563
000170 1c 99 99 bd 00 04 10 3c 4d 35 56 3d cf 98 c6 3d
       -0.074999064 0.008790016 0.052296925 0.09697115
000180 a4 31 d0 3c a1 4e 33 bd 91 11 97 bc 21 c4 ac 3d
       0.025414295 -0.04377616 -0.018440994 0.08435846
000190 c2 9e a2 bc b2 a5 09 3d 0d 16 0a 3d 0f 43 76 be
       -0.019851092 0.033605285 0.033712436 -0.24049018
0001a0 90 8e e2 3d 22 7c 0f bd 88 9f fc be df 1e 79 bd
       0.11062348 -0.03503049 -0.49340463 -0.060820457
0001b0 4f e1 7d be 64 af 0a be 5e ca 74 be 78 46 31 be
       -0.2479298 -0.13543469 -0.23905322 -0.17312038
0001c0 72 bf 21 3d ad 5d 7a 3d fd bd be 3d c2 76 f2 3b
       0.039489217 0.061124492 0.09313581 0.007399411
0001d0 5f d0 a7 be 5b 32 94 bd 57 71 cd bd 09 67 e1 bc
       -0.32776162 -0.07236167 -0.100313835 -0.027514951
0001e0 eb 09 9f 3d 88 19 d4 be 4c c5 bd be bf 5b 1b 3d
       0.077655636 -0.4142573 -0.37064588 0.037929293
0001f0 71 74 08 3e 2c c2 d0 3c db a7 44 be 3c 4c e7 3c
       0.13325669 0.025483213 -0.19204657 0.028234594
000200 1a 1a 71 3d e2 f7 22 be 98 af 9a be 0a 31 c8 bd
       0.058862783 -0.15914872 -0.30212092 -0.097749785
000210 d7 a5 90 3d 3d e4 33 3d 63 d4 21 3d 17 42 71 3d
       0.070628814 0.043918837 0.03950919 0.05890092
000220 31 63 07 3e 49 db bf bc ce fb b9 bd 3a fd 6f bd
       0.13221432 -0.023419993 -0.09081231 -0.058591105
000230 d5 0c 9d bc b6 82 a3 3d a1 ae 9b bd 77 c6 5b be
       -0.019171158 0.079839155 -0.07601667 -0.21462427
000240 38 3a 48 3d 7b a5 c8 be 09 57 86 3d 52 70 e1 3b
       0.048883647 -0.39188752 0.065595694 0.0068798447
000250 17 9b a4 3d da 27 be 3d 31 5b 8e 3c 5c 6d 3d 3c
       0.080373935 0.09284945 0.017377468 0.011561718
000260 e7 70 0d 3d c5 6f 60 be 75 2d 05 bd 75 9f 31 3d
       0.0345315 -0.21917637 -0.032514054 0.04336496
000270 1a 15 5d be 80 52 9f bb f9 ab bb be c5 46 2f be
       -0.21590081 -0.0048621297 -0.36654642 -0.1711684
000280 4e bc 14 3d c3 b3 99 be b7 f0 ac bd cd 05 06 bd
       0.036312394 -0.3001996 -0.0844435 -0.032720376
000290 37 01 94 bd c3 56 a0 be c0 84 87 bc a2 0c b4 3d
       -0.07226794 -0.31316194 -0.016542792 0.08791472
0002a0 1a ac ec 3c 96 00 0c bd 3f fd 54 3d 70 ff cb 3c
       0.028890658 -0.034180246 0.051999327 0.024902076
0002b0 8e d6 5e 3d c9 9e 9f 3d 4e 80 9a bd 25 80 60 be
       0.054403834 0.07793958 -0.075440034 -0.21923883
0002c0 a9 ca f0 3d 8d 6b 99 bd c8 ce ab 3d 83 c6 8b 3d
       0.11757404 -0.07491217 0.0838905 0.068249725
0002d0 c8 d9 c9 3c ef 4d d4 3c 63 57 5b be 85 ea 62 3c
       0.024639979 0.025916068 -0.21420054 0.013849859
0002e0 3a 1d 87 bd fa 60 73 3d 3d 66 61 3c b9 9a b3 3d
       -0.065973714 0.059418656 0.013757286 0.087697454
0002f0 68 e2 d5 be bc 9c c1 bc d5 d5 8f 3d 59 bc ad 3d
       -0.41774297 -0.023634307 0.07023207 0.0848319
000300 3f ba b2 bd 60 ea 53 3d d9 27 78 bd 33 26 b2 3d
       -0.0872693 0.05173719 -0.060584877 0.08698692
000310 94 6b b3 bc 47 09 dc be fe 9c eb 3c 69 08 bb be
       -0.021901883 -0.42975828 0.028761383 -0.36529854
000320 1f f4 bd bd a6 2f 9f bd 08 43 12 3e e9 62 62 be
       -0.09275078 -0.0777276 0.14283383 -0.22108044
000330 f5 95 8b 3e 78 11 a6 bd 22 b0 6f 3e 72 67 2e 3e
       0.27262846 -0.08108801 0.23407033 0.17031649
000340 41 bf 2f 3e ab ed 59 3e 40 a0 43 3e d1 3a 5a be
       0.17162801 0.2128207 0.191041 -0.21311499
000350 7a c1 06 3d e0 39 a1 bd 52 2d 0c 3e 28 32 90 be
       0.032899357 -0.07872367 0.13689163 -0.28163266
000360 88 e3 1b 3d 9a 77 9f bd d4 86 82 be 15 92 f9 3d
       0.038058788 -0.07786484 -0.2549349 0.12186066
000370 9c 0b a0 bd 8a c4 22 bd 59 78 c4 3d 44 c7 c9 bd
       -0.07814714 -0.039738216 0.09593267 -0.0985246
000380 ac ef 03 be d5 8d 76 3e 5d 9c 94 be 3a 30 ad bd
       -0.12884396 0.24077542 -0.29025546 -0.08456464
000390 29 6a ad bc 4b b9 81 bd 3c 53 98 3d 63 33 57 bd
       -0.021168785 -0.0633417 0.07437751 -0.05253924
0003a0 c0 4d 91 3d 05 21 5f be 09 3d 9b 3d f0 dd 09 3c
       0.07094908 -0.2178994 0.07580001 0.00841473
0003b0 29 37 43 bd f4 b0 03 bd c6 91 70 3d ab 9a a6 3d
       -0.047660027 -0.032151178 0.05873277 0.08134969
0003c0 5e 2f 65 be ac 6a 0e 3e db 00 35 3e 4c 9e 2e be
       -0.2238135 0.1390788 0.17676108 -0.17052573
0003d0 e2 f2 31 bc 6b 29 38 3e 00 db 3e bc 97 0e 62 3e
       -0.01086113 0.1798455 -0.011648893 0.22075878
0003e0 d6 c3 5a 3d 7e e8 5c bd 4c e9 8d be 2c 16 86 3e
       0.05340942 -0.05393266 -0.27717054 0.2618879
0003f0 ba 85 60 be 56 24 ce 3e 7e 14 09 be c1 b3 70 3d
       -0.21926013 0.40262097 -0.13386723 0.058765177

fc2.bias f4 [5]
000000 67 40 c1 3d 50 93 dc bb a8 18 84 3d 73 c9 04 bc
       0.09436112 -0.006731428 0.06450015 -0.00810467
000010 a7 2f d1 3d
       0.10214167
