project/weights/model_at_1589270312.96.ckpt (torch_old, 412820 bytes, 4 tensors)

fc1.weight f4 [100, 1024]
0.023834316 0.0071733827 -0.0034766304 -0.0026869776 0.029581461 0.0072687017 0.038294762 -0.0247326
0.014801043 0.019847257 0.04369119 0.02263242 0.06432349 0.033684064 0.029549155 -0.0077984664
-0.017182177 -0.013802749 0.010649873 -0.0008263956 -0.0002339475 0.032497108 0.026786767 -0.035305675
0.0182902 0.047779437 0.0006039627 0.031482268 -0.0044798185 0.0025539042 0.06098593 0.004255662
0.030815203 -0.0035432193 0.04024558 0.018182764 -0.010164575 -0.02256866 -0.010430492 -0.021062663
-0.00959669 0.02092283 0.047751635 0.004085057 0.023090478 -0.0015544926 -0.00090321485 -0.047209036
0.0005390108 -0.049879726 -0.045753103 -0.030676989 -0.021863012 -0.008974865 0.011902192 -0.038827248
0.00067784416 0.03331347 -0.026676707 -0.009443755 0.028820338 0.024343774 0.03874579 0.055619355
0.032801628 0.0044996766 0.029737294 0.0073079406 -0.04280683 0.007047907 -0.0060045095 -0.028203627
-0.023812573 0.020055007 0.007217472 -0.0014284161 0.059747703 0.038217507 -0.0039062686 -0.013735649
0.014093123 0.005955349 -0.05642952 -0.014178561 -0.014693049 -0.019305807 0.018031 0.012878666
-0.038779415 0.022200469 0.009636301 0.029388731 0.018508196 -0.019093003 0.022488292 0.00042400905
-0.0051084724 -0.0018168271 0.017619649 0.007293943 -0.03372667 -0.048559196 -0.029616445 0.016203523
-0.024646472 0.018643802 -0.017509567 0.013966788 0.055462528 0.03487303 -0.049638137 -0.037882816
-0.060600393 -0.07611536 -0.06380395 -0.02943436 0.0042640083 -0.037110936 0.0019427245 -0.033971008
-0.040981684 0.021037033 -0.030755725 0.023791455 0.011845595 0.009409475 0.033550218 -0.016851623
-0.0035118412 -0.04543996 0.02864674 -0.03570885 -0.055683516 0.008487855 -0.03231019 -0.028506784
-0.007939786 0.015443796 0.0009959745 0.009942388 0.049307995 0.006633451 0.014866305 -0.017328292
-0.023714488 -0.022869375 -0.04002889 0.007165427 0.0016129789 -0.0076775723 0.0031118018 0.013792418
0.0031961843 -0.013722048 -0.010217622 -0.027197996 -0.0067465133 0.02732778 0.02959006 0.047633234
0.030974241 -0.040053584 0.03281203 -0.029142857 -0.0417451 0.0069495733 -0.0066955592 -0.021057835
0.031347614 0.00359494 0.035132535 0.0026902163 0.029118352 0.03211685 0.0089527825 0.047935437
0.036593802 -0.016944354 0.025531096 0.03117252 -0.0041890605 -0.021864664 -0.026068188 -0.007477929
0.03001016 -0.003249697 -0.033733625 -0.027748395 0.030089654 0.0043781223 0.062386084 0.04844456
-0.031803925 -0.03199496 -0.0027077268 -0.03943838 -0.004411273 -0.018453918 -0.027386826 -0.025523566
0.023386445 0.0078201685 -0.031636775 -0.0004921066 -0.012121596 0.03578496 -0.017740725 0.022890087
0.044005897 -0.031338923 -0.041277867 0.020880109 -0.0030339898 -0.022202633 -0.048812814 -0.002987117
-0.050628014 0.0196317 -0.01522598 -0.055390894 0.0038518617 0.006272358 0.03607218 -0.019234672
-0.0040626065 0.012070649 0.030062243 -0.040577002 -0.00487724 0.0133172525 -0.02922733 -0.0012247902
-0.010926786 -0.02479928 -0.016845765 -0.025260873 0.01995489 0.0077330363 0.044958383 -0.028786154
0.0029422594 -0.03730484 0.009952917 -0.015574736 -0.03233541 -0.035811048 -0.017171666 -0.034682263
-0.014172142 0.0067986916 0.00045425232 -0.049612217 -0.017478662 -0.03097787 0.040590953 -0.003953349
00000000: 2f40 c33c b20e eb3b 2ed8 63bb 0118 30bb
00000010: d254 f23c 4a2e ee3b f8da 1c3d 069c cabc
00000020: 1380 723c b796 a23c 89f5 323d a067 b93c
00000030: 09bc 833d 4df8 093d 1211 f23c 478a ffbb
00000040: a3c1 8cbc ed24 62bc ce7c 2e3c 78a2 58ba
00000050: ce4f 75b9 b01b 053d ec6f db3c af9c 10bd
00000060: 54d5 953c 5fb4 433d 4053 1e3a 8df3 003d
00000070: 71cb 92bb 675f 273b 62cc 793d 1573 8b3b
00000080: 2a70 fc3c 5b35 68bb 8dd8 243d 05f4 943c
00000090: 5189 26bc e9e1 b8bc a8e4 2abc 9b8b acbc
000000a0: 6f3b 1dbc 5b66 ab3c 3897 433d f1db 853b
000000b0: 3e28 bd3c 1ec0 cbba b9c5 6cba 435e 41bd
000000c0: 674c 0d3a af4e 4cbd 9b67 3bbd 4f4e fbbc
000000d0: 0f1a b3bc 500b 13bc 6901 433c 5209 1fbd
000000e0: 5ab1 313a b573 083d 1c89 dabc fbb9 1abc
000000f0: a118 ec3c 986c c73c e8b3 1e3d 1fd1 633d
00000100: 005b 063d 0672 933b a09b f33c 7377 ef3b
00000110: 3756 2fbd 21f2 e63b 7ac1 c4bb 4b0b e7bc
00000120: 9612 c3bc 664a a43c 8b80 ec3b b139 bbba
00000130: 02ba 743d f689 1c3d 2800 80bb 7d0b 61bc
00000140: d8e6 663c 1725 c33b a422 67bd 324d 68bc
00000150: 1dbb 70bc 3627 9ebc bfb5 933c 0a01 533c
00000160: 2ad7 1ebd c2dd b53c 93e1 1d3c a3c0 f03c
00000170: 809e 973c ee68 9cbc 5e39 b83c 884d de39
00000180: f964 a7bb 9a22 eeba 1557 903c 0702 ef3b
00000190: fa24 0abd 02e6 46bd 309e f2bc 40bd 843c
000001a0: 66e7 c9bc e3ba 983c 3970 8fbc f4d4 643c
000001b0: ad2c 633d 06d7 0e3d 5c51 4bbd 032b 1bbd
000001c0: 1e38 78bd 5fe2 9bbd a5ab 82bd 5420 f1bc
000001d0: 18b9 8b3b a301 18bd 04a3 fe3a 2f25 0bbd
000001e0: 69dc 27bd db55 ac3c 6ef3 fbbc 4ce6 c23c
000001f0: 0714 423c 332a 1a3c f46b 093d 6a0c 8abc
00000200: eb26 66bb 401f 3abd 91ac ea3c 7143 12bd
00000210: 6614 64bd a510 0b3c b157 04bd 0f87 e9bc
00000220: e015 02bc fa07 7d3c 5c8b 823a 66e5 223c
00000230: 2ef7 493d 6c5d d93b cd91 733c 10f4 8dbc
00000240: e344 c2bc 8e58 bbbc 55f5 23bd f5cb ea3b
00000250: 976a d33a 2594 fbbb 5fef 4b3b 98f9 613c
00000260: 1377 513b 71d2 60bc d067 27bc 55ce debc
00000270: db11 ddbb 82de df3c da66 f23c 111b 433d
00000280: b1bd fd3c 3a0f 24bd e865 063d 00bd eebc
00000290: e9fc 2abd 3fb9 e33b 6c66 dbbb 7b81 acbc
000002a0: 5b66 003d 1699 6b3b 22e7 0f3d 574e 303b
000002b0: 9c89 ee3c f58c 033d b1ae 123c f357 443d
000002c0: 62e3 153d e3ce 8abc 9726 d13c 835d ff3c
000002d0: 6344 89bb 861d b3bc f48c d5bc 6a09 f5bb
000002e0: ded7 f53c def8 54bb 452c 0abd 9a50 e3bc
000002f0: 947e f63c 5a76 8f3b 8d88 7f3d ce6d 463d
00000300: d544 02bd 260d 03bd 1e74 31bb 248a 21bd
00000310: 718c 90bb ac2c 97bc 565a e0bc cc16 d1bc
00000320: ee94 bf3c 2a20 003c 9095 01bd b700 01ba
00000330: a999 46bc 4093 123d ff54 91bc fe83 bb3c
00000340: 873f 343d 3e5d 00bd fb12 29bd c30c ab3c
00000350: e7d5 46bb 4ce2 b5bc f2ef 47bd 82c3 43bb
00000360: 525f 4fbd a9d2 a03c 6476 79bc 90e1 62bd
00000370: 846f 7c3b 5a88 cd3b 6cc0 133d 0892 9dbc
00000380: 9d1f 85bb f9c3 453c 1845 f63c 1234 26bd
00000390: 41d1 9fbb 9b30 5a3c 276e efbc 2489 a0ba
000003a0: 4306 33bc dc27 cbbc 2100 8abc e4ef cebc
000003b0: 7078 a33c 6965 fd3b 4826 383d f1d0 ebbc
000003c0: ecd2 403b f6cc 18bd 8f11 233c 2d2d 7fbc
000003d0: 2372 04bd 9bae 12bd 98ab 8cbc fd0e 0ebd
000003e0: 4632 68bc 8fc7 de3b b728 ee39 2e36 4bbd
000003f0: 692f 8fbc 4dc5 fdbc b342 263d 188b 81bb

fc1.bias f4 [100]
0.015587791 0.040730875 -0.004702813 0.007992618 0.032879233 0.024596024 0.037229005 0.057726104
0.012828919 0.017648911 -0.0047942908 0.018702948 0.013806929 0.027703663 0.014650383 0.013969051
0.065219626 0.025223842 0.021326909 0.03256389 -0.020477423 0.026682168 -0.005408825 0.026993169
0.0005030224 0.025719708 0.02880471 -0.00015619883 -0.03715338 -0.020913057 0.04913193 0.01732254
0.019478189 0.012759354 0.006209606 -0.013453542 0.033795603 -0.00851528 0.017089525 0.0063805897
-0.0016900144 0.017791023 0.02324262 -0.030771866 -0.008895809 -0.027741684 -0.0035091408 -0.023040047
-0.027561432 0.007864543 0.026057519 0.017915372 0.038218133 -0.006374695 0.03766137 -0.022824941
0.025652645 0.004511282 -0.004820475 0.06162723 -0.023511782 -0.007332392 0.00065357774 0.015334173
-0.009795292 -0.002046672 -0.018503595 -0.0020034236 0.028434603 0.04549352 0.029549913 0.02652143
-0.012254957 -0.0008632581 -0.008671621 0.029585022 -0.0018114307 0.0033423551 -0.009986608 -0.009127656
0.06699336 0.006586093 0.018284874 0.038157545 -0.02544387 0.025620833 0.008571346 0.0030114045
-0.026010705 0.012629198 0.032460768 0.026875485 0.029071737 -0.015753916 -0.018851748 0.042765945
0.055021763 0.044076767 0.03132279 -0.017017681
00000000: ef63 7f3c 6bd5 263d 0e1a 9abb 78f3 023c
00000010: 60ac 063d 9a7d c93c 717d 183d 3572 6c3d
00000020: 6330 523c 7394 903c 6d19 9dbb ed36 993c
00000030: 7536 623c cbf2 e23c 2908 703c 72de 643c
00000040: de91 853d 3ba2 ce3c c5b5 ae3c b761 053d
00000050: 45c0 a7bc 9094 da3c 833c b1bb c720 dd3c
00000060: 43dd 033a 23b2 d23c dbf7 eb3c 4ec9 23b9
00000070: 252e 18bd dc51 abbc 903e 493d 00e8 8d3c
00000080: b990 9f3c 9c0c 513c f379 cb3b 3f6c 5cbc
00000090: 426d 0a3d ac83 0bbc 55ff 8b3c 4414 d13b
000000a0: 7983 ddba 7bbe 913c 4f67 be3c 4815 fcbc
000000b0: babf 11bc 8742 e3bc 9df9 65bb 7bbe bcbc
000000c0: 83c8 e1bc 49da 003c 9476 d53c 42c3 923c
000000d0: 9e8a 1c3d d1e2 d0bb cf42 1a3d 5ffb babc
000000e0: 7f25 d23c 60d3 933b 13f5 9dbb d66c 7c3d
000000f0: c89b c0bc 9044 f0bb dc54 2b3a 2f3c 7b3c
00000100: 6f7c 20bc 7521 06bb da94 97bc df4b 03bb
00000110: afef e83c 6a57 3a3d a912 f23c 7843 d93c
00000120: 04c9 48bc 454c 62ba 6a13 0ebc 4a5c f23c
00000130: 876d edba 6a0b 5b3b df9e 23bc 2a8c 15bc
00000140: d133 893d 27d0 d73b 29ca 953c 164b 1c3d
00000150: aa6f d0bc c8e2 d13c d56e 0c3c fc5a 453b
00000160: 6714 d5bc b2ea 4e3c 95f5 043d fa29 dc3c
00000170: da27 ee3c 5b0e 81bc fb6e 9abc 582b 2f3d
00000180: 805e 613d d789 343d 534c 003d aa68 8bbc

fc2.weight f4 [5, 100]
-0.081164084 -0.0060390574 0.008661413 -0.2771935 0.068736106 -0.092778705 -0.02688438 0.118282564
0.16166541 -0.11490939 -0.06127106 -0.20183934 0.03942715 -0.09271375 0.027447643 -0.0064253057
-0.07039539 -0.1944824 -0.054683164 -0.16586263 0.07221895 0.042381577 -0.038522966 0.085324
0.07312163 -0.14387806 -0.07067901 0.055636626 -0.23706785 -0.053218715 -0.124866135 0.013868357
-0.046768203 0.0058309515 -0.057336498 0.012149621 0.113196716 -0.018753348 -0.081471056 0.14037952
0.07044239 -0.31423366 -0.04469688 -0.027454332 0.033252977 -0.026147429 0.025190372 -0.011224831
0.01640287 0.10129475 0.013616186 0.0006251444 0.023377983 0.13831605 0.035386797 0.016119316
0.16586755 0.04916769 0.051125668 -0.13120629 -0.06615168 0.0948031 -0.14717118 -0.076114036
-0.026448261 0.10201714 0.033398714 -0.14480734 -0.122764006 0.11745186 -0.08689648 0.081059486
-0.20492174 -0.022383915 -0.057544522 -0.18242963 0.017027574 -0.08567259 0.17335322 0.120565146
0.052758463 -0.33540773 -0.044436865 -0.2525577 0.056215174 0.07698207 -0.056337044 0.023915129
-0.066830814 -0.28242245 0.019648587 0.031583365 0.15500583 0.032893814 0.14972523 -0.080351725
-0.011066098 0.07777022 -0.039368227 0.017724693 -0.26173925 0.12518543 -0.27139777 0.2205331
-0.44644135 -0.30285016 -0.35909015 -0.36045069 0.1280184 0.028609797 -0.2567472 0.03342555
-0.3124533 0.013031284 0.117969684 -0.26883662 -0.40114644 -0.07811113 -0.23165733 -0.3321721
-0.08065818 -0.199402 0.016999815 -0.069861904 -0.28091478 0.027091408 0.022389289 -0.064068496
-0.090508886 0.12981789 -0.200947 -0.1314628 -0.09061741 0.06537365 -0.15550363 -0.035154063
-0.0023792405 0.1825531 0.08343028 -0.23361734 0.08573528 0.06964389 0.011550915 0.060828455
0.009875324 -0.03498593 -0.04067614 -0.25129098 0.06118155 -0.0127235195 0.085407525 -0.07669714
-0.38285244 -0.028618818 -0.15864852 0.06767096 -0.0028269377 0.040609695 0.015490423 -0.32397106
-0.057000626 0.047795855 -0.33377293 -0.09811904 0.05832986 -0.022819363 0.09391583 0.07507106
0.04892931 -0.012483294 0.03697252 0.020386854 0.10591766 0.092953846 -0.0067949337 0.057542536
0.0409472 -0.02816796 0.03947648 0.074446194 -0.26331577 0.1675684 -0.3097686 -0.008904649
0.09614485 -0.09493878 0.049199652 -0.054739542 0.14350079 -0.27241042 -0.22118402 -0.028677806
-0.09069302 0.06569453 -0.23392117 0.041214842 -0.23658538 -0.41696382 0.08928134 -0.06302861
0.17073315 0.1581095 0.2243311 0.09971576 0.13968803 -0.2440303 0.048036654 0.21117832
0.17889345 0.16290413 0.07506496 -0.05650763 0.28965887 0.011785831 -0.09403854 -0.12234327
0.114172176 0.0007720145 -0.30033976 0.07273425 -0.09122535 -0.24328211 -0.09802716 -0.082164325
-0.14316522 0.17286864 0.029392825 -0.028762007 -0.29036552 -0.13640787 0.2829635 -0.25242624
-0.05109041 -0.07420115 -0.13945304 -0.12450271 0.03261129 -0.03258386 0.053986542 -0.1805017
-0.1307534 0.23131686 0.037664287 -0.015866376 0.1538696 -0.22512607 -0.015312864 -0.2143347
0.00907047 -0.1882629 -0.007430337 -0.047137503 -0.09479926 0.022149239 0.3867971 0.027998634
00000000: 5b39 a6bd 49e3 c5bb 99e8 0d3c 4eec 8dbe
00000010: 84c5 8c3d c302 bebd a23c dcbc 213e f23d
00000020: 9e8b 253e 9d55 ebbd 5df7 7abd f9ae 4ebe
00000030: 5d7e 213d b5e0 bdbd e1d9 e03c 5f8b d2bb
00000040: 752b 90bd 6526 47be 74fb 5fbd e5d7 29be
00000050: 87e7 933d 4e98 2d3d 42ca 1dbd 59be ae3d
00000060: cbc0 953d c554 13be 28c0 90bd 3be3 633d
00000070: eac1 72be defb 59bd d1b9 ffbd 1b38 633c
00000080: 0490 3fbd 9111 bf3b add9 6abd 340f 473c
00000090: aed3 e73d 9fa0 99bc 4cda a6bd a6bf 0f3e
000000a0: 1a44 903d 3ce3 a0be 1314 37bd e8e7 e0bc
000000b0: 4634 083d 2233 d6bc 0a5c ce3c 5be8 37bc
000000c0: 505f 863c 9f73 cf3d 6c16 5f3c bbe0 233a
000000d0: 2f83 bf3c b9a2 0d3e bff1 103d a80c 843c
000000e0: 2fd9 293e 0f64 493d 2669 513d f15a 06be
000000f0: 887a 87bd 2128 c23d 0bb4 16be ade1 9bbd
00000100: 06aa d8bc 5dee d03d 17cd 083d 6048 14be
00000110: b26b fbbd 9a8a f03d c8f6 b1bd 8402 a63d
00000120: 01d7 51be 795e b7bc ceb3 6bbd d5ce 3abe
00000130: 697d 8b3c 1c75 afbd 8283 313e dcea f63d
00000140: 4219 583d 90ba abbe 6e03 36bd 3e4f 81be
00000150: e241 663d c7a8 9d3d acc1 66bd a9e9 c33c
00000160: 98de 88bd ad99 90be 13f6 a03c 8f5d 013d
00000170: d9b9 1e3e aabb 063d 9251 193e 728f a4bd
00000180: 944e 35bc fe45 9f3d 9440 21bd 6033 913c
00000190: b002 86be 9c30 003e a6f4 8abe 6ed3 613e
000001a0: f693 e4be 2d0f 9bbe aada b7be fe8c b8be
000001b0: 4117 033e 185f ea3c 5e74 83be 3be9 083d
000001c0: e1f9 9fbe 2b81 553c 179a f13d f4a4 89be
000001d0: 1163 cdbe baf8 9fbd 9437 6dbe 7612 aabe
000001e0: 1e30 a5bd 0a30 4cbe 3243 8b3c c213 8fbd
000001f0: 10d4 8fbe cdee dd3c be69 b73c 5836 83bd
00000200: b95c b9bd fbee 043e 0dc5 4dbe 2f9e 06be
00000210: 9f95 b9bd 9fe2 853d 583c 1fbe b5fd 0fbd
00000220: 08ed 1bbb 33ef 3a3e 7fdd aa3d 6239 6fbe
00000230: fa95 af3d 75a1 8e3d 0d40 3d3c 4227 793d
00000240: 1ccc 213c 684d 0fbd 069c 26bd 36a9 80be
00000250: 8199 7a3d 4f76 50bc 24ea ae3d 6413 9dbd
00000260: 3c05 c4be 0372 eabc c274 22be 1397 8a3d
00000270: 2544 39bb 5a56 263d 8bcb 7d3c 89df a5be
00000280: 7d79 69bd 96c5 433d 49e4 aabe a3f2 c8bd
00000290: 4beb 6e3d acef babc f156 c03d dbbe 993d
000002a0: 1a6a 483d bb86 4cbc 7f70 173d 5502 a73c
000002b0: 5ceb d83d 965e be3d 09a8 debb b9b1 6b3d
000002c0: 40b8 273d 7ec0 e6bc 17b2 213d 3f77 983d
000002d0: 53d1 86be 0d97 2b3e fd99 9ebe cee4 11bc
000002e0: 97e7 c43d 436f c2bd 9385 493d 9236 60bd
000002f0: dff1 123e 6179 8bbe 107e 62be b8ed eabc
00000300: 43bd b9bd db8a 863d 0889 6fbe e5d0 283d
00000310: 7043 72be 487c d5be 23d9 b63d 2515 81bd
00000320: acd4 2e3e 75e7 213e 0db7 653e c737 cc3d
00000330: 610a 0f3e 14e3 79be 15c2 443d 213f 583e
00000340: d82f 373e 57d0 263e a8bb 993d 8b74 67bd
00000350: 2b4e 943e 5c19 413c 4797 c0bd 1c8f fabd
00000360: 1ad3 e93d 0461 4a3a 22c6 99be b2f5 943d
00000370: 5bd4 babd f21e 79be 77c2 c8bd c545 a8bd
00000380: e799 12be 7a04 313e 39c9 f03c 4d9e ebbc
00000390: caaa 94be 81ae 0bbe 98e0 903e 033e 81be
000003a0: 2e44 51bd c6f6 97bd c7cc 0ebe 47fb febd
000003b0: 6b93 053d a776 05bd fe20 5d3d 70d5 38be
000003c0: 38e4 05be 54de 6c3e de45 1a3d 34fa 81bc
000003d0: fe8f 1d3e 7387 66be cfe2 7abc 8e7a 5bbe
000003e0: 4f9c 143c fdc7 40be 2f7a f3bb 4113 41bd
000003f0: 1d26 c2bd 5272 b53c 450a c63e 645d e53c

fc2.bias f4 [5]
-0.054847293 -0.106255546 0.075979434 -0.031833794 -0.09502625
00000000: 8ea7 60bd 829c d9bd 1b9b 9b3d 2764 02bd
00000010: 1f9d c2bd
