project/weights/model_at_1589270967.53.ckpt (torch_old, 412820 bytes, 4 tensors)

fc1.weight f4 [100, 1024]
0.004230367 -0.009574752 0.022482034 -0.0126469955 0.02122594 -0.026231479 0.022517461 -0.028986335
0.012143616 0.03023851 -0.0015681096 -0.02596682 0.003420236 -0.028267294 -0.00039832236 -0.02312443
0.0025586206 -0.012502267 0.018895354 0.00416279 -0.007031458 -0.015457004 0.006104583 0.012446683
-0.003103333 0.017801307 -0.02597474 0.007827748 -0.014530692 0.00061223324 -0.009744383 -0.004793657
0.0010666228 -0.017833222 -0.015270129 0.0077477484 0.012434814 -0.011277221 0.011740852 -0.003694287
0.019891907 0.0012359186 0.018642409 0.01970983 0.008641658 0.0112032145 -0.015605873 0.028609741
-0.0009071569 0.008685165 -0.030696863 -0.0034165692 -0.017434819 -0.023565538 -0.01808248 -0.027046226
-0.024123963 0.022911683 0.029872932 -0.022888973 0.010782767 -0.028317343 0.0075441287 0.018021327
-0.015586846 0.0076522217 0.023847371 -0.022751808 -0.017283939 0.012688894 -0.017061342 0.0142548755
-0.0058334637 0.016207203 0.004759541 -0.028214142 -0.007015983 0.012871169 -0.014785843 0.018743213
-0.0068864347 0.028918514 -0.0029264134 -0.022136228 0.016280083 0.0009874753 0.0075544068 0.028290045
-0.0041107927 0.001151064 -0.025363643 0.017101008 -0.012868658 -0.018612545 0.011445563 -0.0061845873
-0.025674425 -0.01330284 0.024936125 -0.02020533 0.026629508 -0.026262138 0.018633205 0.011620093
0.023019362 0.005915759 0.0056766327 -0.024101604 -0.002099962 0.022153325 -0.025606025 0.023116555
-0.029272527 -0.008189307 -0.0055520954 0.012788131 -0.0039241845 0.026617758 0.025456399 0.021612182
-0.02598979 0.026189748 0.001514615 0.002571249 -0.004623102 0.0066822935 0.020887453 -0.01948667
0.027815908 0.006993821 0.009748086 -0.031319886 0.022053808 -0.008560516 0.00030265813 -0.01095954
-0.004280878 0.026814103 -0.017613094 0.01094613 -0.027872138 -0.00300543 0.01947219 -0.011356435
-0.0058836984 -0.0127995135 0.016130526 0.029737925 -0.027945971 -0.01322908 -0.024119128 0.022028737
-0.023195066 -0.030821305 -0.018972497 -0.0041755494 0.028564744 -0.019596852 0.011918049 -0.00030044778
-0.013538513 -0.01262676 0.0037694962 0.01835332 -0.0033672624 0.03066403 0.0034095175 0.006914338
-0.0042039473 0.012531228 0.0055245217 -0.025326096 -0.021394309 0.0027396716 0.0028222762 0.0022447314
-0.0025415975 -5.3015487e-05 0.008176552 0.024232874 -0.013241043 -0.0028517232 -0.0034063966 -0.008813225
0.023962218 -0.0168126 0.016017836 0.018747915 -0.026300862 0.003197053 0.009195216 0.0002237637
-0.0257301 -0.016767148 0.014900349 -0.014941208 -0.0058129635 0.029978715 0.022041958 -0.026447222
0.010260414 -0.0018949606 -0.00047204213 -0.0108678695 -0.027876507 -0.013775235 -0.017137758 0.0076089473
-0.023150112 -0.0035258518 0.022068638 0.0043408885 -0.025540898 0.009040095 -0.01916778 0.019047279
-0.0027942793 0.010470625 -0.009006705 -0.0010811372 0.016529206 0.011283152 -0.0070209894 0.029409915
-0.004968783 -0.016868345 -0.015732175 -0.024374235 0.029336028 -0.018754914 0.01009829 -0.010885488
0.01942771 -0.016652048 -0.015623771 -0.0047430824 -0.01969795 -0.009510608 -0.0027123974 -0.020899376
-0.011900667 -0.021359388 0.030694067 -0.015508058 -0.004019474 0.015077941 0.022491373 0.0019332932
0.026017204 -0.015829828 0.02345093 -0.025035042 -0.017351016 0.01597758 0.010110002 0.02044442
00000000: e49e 8a3b 6cdf 1cbc 3e2c b83c 5835 4fbc
00000010: 06e2 ad3c 66e3 d6bc 8a76 b83c c074 edbc
00000020: 04f6 463c c0b6 f73c 0789 cdba 5eb8 d4bc
00000030: 0a26 603b d090 e7bc ecd5 d0b9 726f bdbc
00000040: 88ae 273b 4fd6 4cbc 6eca 9a3c 0368 883b
00000050: 2568 e6bb 603f 7dbc f408 c83b 2ced 4b3c
00000060: 4a61 4bbb 0cd4 913c fac8 d4bc f43f 003c
00000070: 2412 6ebc 477e 203a e8a6 1fbc 1c14 9dbb
00000080: eccd 8b3a fa16 92bc 902f 7abc d3e0 fd3b
00000090: 64bb 4b3c 18c4 38bc b45c 403c da1b 72bb
000000a0: 5af4 a23c 8cfe a13a f7b7 983c 8276 a13c
000000b0: be95 0d3c b08d 373c c7af 7fbc fa5e ea3c
000000c0: 45ce 6dba 394c 0e3c fd77 fbbc 85e8 5fbb
000000d0: 77d3 8ebc 840c c1bc b621 94bc 0c90 ddbc
000000e0: 9e9f c5bc 48b1 bb3c 14b8 f43c a881 bbbc
000000f0: 34aa 303c c6f9 e7bc bd34 f73b 76a1 933c
00000100: f85f 7fbc 7dbf fa3b 905b c33c 0062 babc
00000110: 0c97 8dbc 14e5 4f3c 3ac4 8bbc 488d 693c
00000120: a426 bfbb f8c4 843c ecf5 9b3b 5821 e7bc
00000130: 55e6 e5bb 98e1 523c 5240 72bc 5e8b 993c
00000140: 9aa7 e1bb 85e6 ec3c 12c9 3fbb 0957 b5bc
00000150: cf5d 853c 2c6e 813a f58a f73b 86c0 e73c
00000160: d4b3 86bb 4cdf 963a 6ac7 cfbc 6a17 8c3c
00000170: 10d7 52bc 5679 98bc 2c86 3b3c 14a8 cabb
00000180: 2c53 d2bc 28f4 59bc d846 cc3c a685 a5bc
00000190: 2026 da3c b223 d7bc aaa4 983c 3462 3e3c
000001a0: 1a93 bc3c fcd8 c13b 0c03 ba3b ba70 c5bc
000001b0: 849f 09bb e47a b53c bac3 d1bc ee5e bd3c
000001c0: f0cc efbc 712c 06bc 5aee b5bb 4f85 513c
000001d0: 7296 80bb 7c0d da3c f089 d03c 080c b13c
000001e0: 8ae8 d4bc e28b d63c 0c86 c63a 6682 283b
000001f0: 647d 97bb 24f7 da3b 2a1c ab3c 82a2 9fbc
00000200: 30de e33c 6c2c e53b 70b6 1f3c 4849 00bd
00000210: 30aa b43c 6841 0cbc 16ae 9e39 a48f 33bc
00000220: 9c46 8cbb 40a9 db3c 5649 90bc 6657 333c
00000230: 1c54 e4bc c0f6 44bb 2484 9f3c 5710 3abc
00000240: 0acc c0bb 0db5 51bc 2a24 843c f39c f33c
00000250: f3ee e4bc c8be 58bc 7a95 c5bc 9c75 b43c
00000260: 9403 bebc f67c fcbc 366c 9bbc 0cd3 88bb
00000270: 9c00 ea3c 9489 a0bc ec43 433c 6b85 9db9
00000280: a4d0 5dbc 78e0 4ebc a709 773b b459 963c
00000290: 4aad 5cbb 2233 fb3c 3672 5f3b ac91 e23b
000002a0: 44c1 89bb c84f 4d3c 0c07 b53b ac78 cfbc
000002b0: 1e43 afbc 108c 333b f0f5 383b 581c 133b
000002c0: ee90 26bb f25c 5eb8 f2f6 053c 0584 c63c
000002d0: f6f0 58bc fae3 3abb da3d 5fbb 5865 10bc
000002e0: 6a4c c43c 94ba 89bc d637 833c 3a95 993c
000002f0: e874 d7bc a685 513b 88a7 163c 1ca2 6a39
00000300: eec7 d2bc 425b 89bc 9820 743c f8cb 74bc
00000310: ac7a bebb ec95 f53c 5691 b43c d8a7 d8bc
00000320: 4c1b 283c 5460 f8ba 6c7c f7b9 260f 32bc
00000330: 465d e4bc 86b1 61bc 7c64 8cbc 7a54 f93b
00000340: 4ea5 bdbc fa11 67bb 4ac9 b43c 033e 8e3b
00000350: 253b d1bc e81c 143c c005 9dbc 0a09 9c3c
00000360: 3a20 37bb fc8c 2b3c dc90 13bc f2b4 8dba
00000370: 4268 873c f8dc 383c 5410 e6bb 10ed f03c
00000380: 2cd1 a2bb 7c2f 8abc c3e0 80bc 7aac c7bc
00000390: 1c52 f03c e8a3 99bc 4c73 253c 0c59 32bc
000003a0: dc26 9f3c e069 88bc d8fa 7fbc dc6b 9bbb
000003b0: 985d a1bc 62d2 1bbc 7ac2 31bb 2b35 abbc
000003c0: 04fb 42bc e2f9 aebc 2072 fb3c 8215 7ebc
000003d0: cbb5 83bb 7809 773c d43f b83c 8e66 fd3a
000003e0: 0822 d53c 8ead 81bc 2a1c c03c 4a16 cdbc
000003f0: b823 8ebc 6ae3 823c 6ca4 253c 0e7b a73c

fc1.bias f4 [100]
0.030132912 0.035102054 -0.012926035 0.024639685 0.01164249 -0.021859596 0.014296847 0.034292944
0.039059117 -0.05199688 0.0058198925 -0.0017681795 0.017606886 0.008088261 -0.0050820624 0.027206708
-0.0027357303 -0.020141358 -0.029409355 0.0291632 -0.017264655 -0.03242394 0.042870328 -0.0212777
0.0020093527 -0.010488676 0.029100258 0.023535863 0.020891499 0.0010362068 -0.016686201 -0.03164292
0.007905005 -0.013241978 0.01648901 -0.012702281 0.02222578 0.0043637776 -0.051204395 0.05250747
0.016040923 0.018202497 0.00050723285 0.016094087 0.006563697 -0.02282817 0.012158576 0.027613042
0.017404512 0.0035520599 0.00037780777 0.030096151 0.022602586 0.0018915093 -0.028791413 -0.022865469
0.009276378 -0.0009611542 0.029206403 0.02333149 0.018592045 0.007975273 -0.033469446 0.018541148
-0.03059014 0.008912974 -0.014038501 -0.013360558 0.01617233 0.01853127 -0.031636506 -0.011712036
-0.001343756 -0.022113292 0.003494652 0.011095003 -0.011385305 0.012560976 -0.022038085 0.0475247
-0.03780333 0.0022355004 0.015285803 0.017480515 0.0013080194 0.019591484 0.002242383 -0.008648365
-0.026123846 0.044450693 0.024467047 0.04087001 0.03744319 0.029286861 0.014684732 0.045868367
-0.019161416 -0.02420393 0.028916404 -0.03402805
00000000: 4cd9 f63c 2cc7 0f3d b8c7 53bc 2ad9 c93c
00000010: 24c0 3e3c e512 b3bc 533d 6a3c c276 0c3d
00000020: 74fc 1f3d aefa 54bd ccb4 be3b 42c2 e7ba
00000030: 513c 903c a084 043c 6e87 a6bb 9ae0 de3c
00000040: f049 33bb 7dff a4bc e3eb f0bc aae7 ee3c
00000050: 9b6e 8dbc f7ce 04bd cc98 2f3d 924e aebc
00000060: 58af 033b b2d8 2bbc aa63 ee3c 48ce c03c
00000070: a624 ab3c 55d1 873a 80b1 88bc 029c 01bd
00000080: fe83 013c e2f4 58bc f613 873c 3a1d 50bc
00000090: d712 b63c 05fe 8e3b b3bb 51bd 1312 573d
000000a0: 4168 833c 671d 953c d2f7 043a bfd7 833c
000000b0: 4814 d73b 2402 bbbc c434 473c bf34 e23c
000000c0: e893 8e3c adc9 683b 8014 c639 348c f63c
000000d0: 0f29 b93c 85ec f73a f8db ebbc 5d50 bbbc
000000e0: f3fb 173c f7f5 7bba 4442 ef3c ae21 bf3c
000000f0: 584e 983c b8aa 023c 4217 09bd 9be3 973c
00000100: 2c98 fabc b907 123c be01 66bc 3ee6 5abc
00000110: d67b 843c e4ce 973c 4895 01bd d7e3 3fbc
00000120: f820 b0ba ef26 b5bc 8806 653b d1c7 353c
00000130: 6e89 3abc 8dcc 4d3c 3789 b4bc 43a9 423d
00000140: aad7 1abd 7981 123b 4e71 7a3c 4c33 8f3c
00000150: d971 ab3a 527e a03c f2f4 123b dfb1 0dbc
00000160: ad01 d6bc ee11 363d 1e6f c83c 5067 273d
00000170: 085e 193d 00eb ef3c 3b98 703c 78e0 3b3d
00000180: 67f8 9cbc 5247 c6bc 18e2 ec3c ff60 0bbd

fc2.weight f4 [5, 100]
-0.018592348 -0.11730094 0.07598073 0.10345752 -0.015693296 0.06873075 -0.033707753 -0.094314344
0.10774639 0.06297802 0.0092392145 0.08794467 0.060195934 0.08672113 0.0992261 -0.008157929
0.046300568 -0.1215908 0.018238122 0.00467278 0.022222534 -0.0021981937 -0.11245122 -0.013261258
-0.12538035 -0.08518138 0.047213864 0.04124069 0.015086717 0.0671569 -0.06078817 0.014798361
-0.07386174 0.1294708 -0.08436483 0.003463714 0.12089287 0.02629741 0.0753456 0.027634794
0.08580155 -0.13852087 0.076109 -0.073331565 -0.09190707 0.0500791 -0.0015156865 0.11023008
0.020520875 0.10052561 0.04522077 0.05245552 0.11245162 -0.02152431 0.07843523 0.059706435
0.018616222 -0.031756453 0.011845754 -0.1394585 -8.190851e-05 -0.06178039 0.050818976 0.093980156
0.08528468 0.019157497 0.07863614 -0.13730375 -0.06668588 0.021407409 -0.006780003 0.09806208
0.09253074 0.07313501 -0.03115113 0.06415857 0.059219655 -0.109839566 0.05690097 -0.16937353
0.040715177 0.034899883 -0.07665913 0.032715425 0.025678627 0.10929664 -0.058735 0.037335034
-0.013090561 -0.028950462 0.030181527 -0.09865886 0.09536142 -0.0933953 -0.11632425 -0.14734402
-0.11052701 -0.0999082 -0.17257528 0.09420739 -0.056060873 -0.04289461 -0.060454737 0.05291278
0.004057061 -0.10979095 0.019598415 -0.18668213 -0.25506788 0.02019973 0.031072387 0.013370246
-0.30207014 -0.0478046 0.052050855 -0.3045009 0.033046506 -0.044267535 0.08984641 -0.0057939086
0.088125125 0.10316046 0.0038105797 0.07524519 -0.23119262 -0.017152123 -0.069919415 -0.030356396
0.14320837 0.09224259 0.012710635 -0.021597466 0.036658756 -0.2217617 0.06832683 0.1298308
-0.11048761 0.1258304 0.10325403 -0.21193273 0.02671872 0.03043578 0.075468056 -0.14802644
-0.016054051 0.08781964 -0.05481955 -0.048663013 0.04655972 -0.045201343 0.07370364 -0.02444163
-0.005417328 0.12326017 -0.07117234 0.1475782 0.08104277 0.065818235 0.03226146 -0.092729025
-0.2479332 -0.000858055 0.063788824 -0.17747389 -0.096724704 0.06314207 -0.042662 -0.067390375
0.19540018 -0.13626237 -0.019234495 -0.032943524 -0.19098894 -0.06110144 0.07488027 -0.0009909652
0.015509023 0.11074133 0.09814701 0.08973539 0.123712935 -0.0044501843 -0.012242766 0.087904066
0.10323811 -0.07382498 -0.081479855 -0.2295956 -0.009536238 0.13510898 -0.009014509 0.044241574
-0.20868331 0.03427345 0.14404286 -0.27497494 0.04111842 -0.08911482 0.044270664 0.12843482
0.091855876 0.007955078 0.047118373 0.1424939 0.2638527 -0.018047279 -0.098645024 -0.033385962
0.09433899 -0.20816597 0.0016929859 -0.02349996 0.14127684 0.11639406 -0.007277739 0.15329981
-0.062358107 -0.005338262 0.057901345 0.12136185 -0.1978191 -0.141307 0.15561816 -0.09375082
-0.029967425 -0.10200724 -0.09244999 0.05284023 0.14537004 -0.08464928 -0.039266363 -0.08031799
0.018958049 -0.08506589 0.13595746 0.08485058 0.14971547 0.05429021 -0.10429071 0.12313328
-0.081766844 -0.050776564 -0.027972104 0.16601405 -0.035425104 -0.052758075 -0.010592058 0.015122241
-0.06771734 -0.18407331 0.08168081 -0.03946756 0.024184367 0.1675964 -0.19836648 -0.0119924
00000000: fb4e 98bc 7a3b f0bd c99b 9b3d 89e1 d33d
00000010: 3a8f 80bc b5c2 8c3d 2411 0abd e127 c1bd
00000020: 24aa dc3d 9ffa 803d 1360 173c 561c b43d
00000030: 0390 763d d99a b13d 0e37 cb3d d6a8 05bc
00000040: aaa5 3d3d 9904 f9bd 1d68 953c 1f1e 993b
00000050: 080c b63c 920f 10bb d34c e6bd bf45 59bc
00000060: b563 00be 9373 aebd 5363 413d ffeb 283d
00000070: 472e 773c 8f89 893d 04fd 78bd d374 723c
00000080: d344 97bd fe93 043e 78c7 acbd 7aff 623b
00000090: ae96 f73d aa6d d73c cb4e 9a3d 5d62 e23c
000000a0: b9b8 af3d 6ad8 0dbe 09df 9b3d dc2e 96bd
000000b0: c639 bcbd be1f 4d3d 00aa c6ba 4fc0 e13d
000000c0: 651b a83c 5fe0 cd3d 6a39 393d 99db 563d
000000d0: 094d e63d c053 b0bc a6a2 a03d bc8e 743d
000000e0: 0c81 983c 0e13 02bd b214 423c 36ce 0ebe
000000f0: 4cc6 abb8 6f0d 7dbd 8f27 503d ab78 c03d
00000100: bca9 ae3d 2ff0 9c3c fc0b a13d 5b99 0cbe
00000110: 9b92 88bd 975e af3c ca2a debb c6d4 c83d
00000120: c280 bd3d cfc7 953d a830 ffbc 9165 833d
00000130: 4f90 723d 91f3 e0bd fe10 693d 4170 2dbe
00000140: f5c4 263d 2ef3 0e3d 76ff 9cbd 9c00 063d
00000150: fc5b d23c ebd6 df3d 1d94 70bd 9fec 183d
00000160: cb79 56bc 8529 edbc 403f f73c a80d cabd
00000170: d94c c33d 0946 bfbd 693b eebd 5ae1 16be
00000180: fc5b e2bd ac9c ccbd 93b7 30be ceef c03d
00000190: 16a0 65bd 42b2 2fbd 639f 77bd 12bb 583d
000001a0: 18f1 843b 14da e0bd db8c a03c 9a29 3fbe
000001b0: 4298 82be e779 a53c 858b fe3c e00e 5b3c
000001c0: f0a8 9abe c2ce 43bd 4733 553d 8be7 9bbe
000001d0: c65b 073d e051 35bd 6501 b83d d4da bdbb
000001e0: f27a b43d cb45 d33d ebba 793b 261a 9a3d
000001f0: c2bd 6cbe 9c82 8cbc e931 8fbd faad f8bc
00000200: 37a5 123e afe9 bc3d 4440 503c 2bed b0bc
00000210: 7e27 163d 8015 63be f0ee 8b3d 5ef2 043e
00000220: 5447 e2bd afd9 003e d976 d33d e504 59be
00000230: 38e1 da3c 7554 f93c ff8e 9a3d 3e94 17be
00000240: c983 83bc c9da b33d 778a 60bd de52 47bd
00000250: 68b5 3e3d 0b25 39bd eff1 963d d039 c8bc
00000260: d783 b1bb d46f fc3d cec2 91bd bd1e 173e
00000270: c0f9 a53d b6cb 863d 9824 043d b7e8 bdbd
00000280: 33e2 7dbe 19ef 60ba b7a3 823d b7bb 35be
00000290: 9a17 c6bd a150 813d 59be 2ebd f703 8abd
000002a0: fc16 483e 5d88 0bbe a991 9dbc caef 06bd
000002b0: 9b92 43be 8145 7abd d45a 993d 46e3 81ba
000002c0: 8f19 7e3c 5acc e23d 4d01 c93d 30c7 b73d
000002d0: 355d fd3d dad2 91bb e295 48bc 0c07 b43d
000002e0: 816e d33d 8d31 97bd e9de a6bd 1c1b 6bbe
000002f0: e23d 1cbc 025a 0a3e 97b1 13bc a736 353d
00000300: 14b1 55be 5162 0c3d f97f 133e 84c9 8cbe
00000310: ca6b 283d d581 b6bd 2855 353d 6b84 033e
00000320: ef1e bc3d 0456 023c 32ff 403d ece9 113e
00000330: b317 873e e3d7 93bc 6706 cabd b8bf 08bd
00000340: cd34 c13d 7629 55be 2ee7 dd3a fd82 c0bc
00000350: e0aa 103e 0260 ee3d 197a eebb a0fa 1c3e
00000360: 376b 7fbd 96ec aebb f629 6d3d 908c f83d
00000370: 1791 4abe c8b2 10be 5e5a 1f3e 6e00 c0bd
00000380: 3f7e f5bc 2ce9 d0bd 6c56 bdbd ff6e 583d
00000390: e2db 143e 9a5c adbd c4d5 20bd c27d a4bd
000003a0: e94d 9b3c 0637 aebd 6f38 0b3e 24c6 ad3d
000003b0: 034f 193e 695f 5e3d 5e96 d5bd 4d2d fc3d
000003c0: 6075 a7bd 16fb 4fbd c125 e5bc 96ff 293e
000003d0: ea19 11bd da18 58bd 508a 2dbc 47c3 773c
000003e0: 64af 8abd b77d 3cbe 4548 a73d bca8 21bd
000003f0: 4b1e c63c 649e 2b3e 9520 4bbe c57b 44bc

fc2.bias f4 [5]
0.0046079326 -0.029015722 0.11925543 0.08869541 -0.02212173
00000000: 24fe 963b 61b2 edbc 313c f43d f0a5 b53d
00000010: a138 b5bc
