project/weights/model_at_1589277102.32.ckpt (torch_old, 516819 bytes, 8 tensors)

conv1.weight f4 [3, 1, 3, 3]
0	0xbe7f0a75	-0.24906333
1	0xbe1550c1	-0.14581586
2	0x3edc8709	0.43071774
3	0xbe906e4f	-0.2820916
4	0xbe86e5d9	-0.26347235
5	0x3ec397eb	0.38201842
6	0xbe89cc7d	-0.26913825
7	0xbe55d4d6	-0.20881972
8	0x3f03c101	0.51466376
9	0x3e4f6e0f	0.20256828
10	0xbdf8d7be	-0.121505246
11	0xbe8f6e43	-0.2801381
12	0x3df59734	0.1199173
13	0x3e02b3f2	0.12763956
14	0xbe06df9c	-0.13171238
15	0xbec6916f	-0.38782832
16	0xbde50ec0	-0.11184454
17	0x3e727628	0.23677886
18	0xbea18bae	-0.3155188
19	0xbef995c8	-0.48747087
20	0xbeaa7aa2	-0.33296686
21	0x3ee4af5b	0.44665036
22	0x3e963c59	0.29342917
23	0x3ed5f637	0.4178941
24	0xbe7e7eb6	-0.24853024
25	0x3e582c2e	0.21110603
26	0xbe3cbbae	-0.18430969

conv1.bias f4 [3]
0	0xbcff1f39	-0.031142818
1	0x3eb2d980	0.34931564
2	0x3e821d89	0.2541316

conv2.weight f4 [10, 3, 3, 3]
0	0x3ebffb62	0.37496477
1	0x3daf4a9d	0.08559153
2	0x3ddf00e4	0.10888842
3	0xbe53376d	-0.20626612
4	0xbe91be5a	-0.2846554
5	0xbee5031f	-0.44728944
6	0xbf2638a1	-0.6493016
7	0xbe79023a	-0.24317256
8	0xbe91b2bf	-0.28456685
9	0x3ef084b0	0.46976233
10	0x3ea992e3	0.33119878
11	0xbdf57893	-0.11985888
12	0xbec546a7	-0.38530466
13	0xbe8ba24a	-0.27272254
14	0x3dabfbd7	0.08397644
15	0xbec04d4e	-0.3755898
16	0xbdb6b176	-0.08920567
17	0x3e844386	0.25832766
18	0x3f127251	0.57205683
19	0x3ec155ac	0.37760675
20	0x3ebb9143	0.36634263
21	0x3f218aae	0.63102233
22	0x3f313bd6	0.6923193
23	0x3f1f9033	0.62329406
24	0xbf1834dd	-0.5945566
25	0xbf3eae68	-0.7448487
26	0xbed76506	-0.42069262
27	0x3ed6a451	0.41922238
28	0x3f2c72a5	0.67362434
29	0x3f097184	0.53688836
30	0x3ef0a5ef	0.47001597
31	0x3f1064ba	0.56403697
32	0x3f62c51e	0.88582027
33	0x3f30ea6e	0.6910771
34	0x3ee7dfa0	0.452878
35	0x3f6d742c	0.9275539
36	0x3e223065	0.15838774
37	0x3e594412	0.21217373
38	0x3e77d2d7	0.24201523
39	0x3e4ba8d4	0.19888622
40	0x3eac6632	0.3367172
41	0x3e1793a0	0.14802408
42	0x3e82e7a5	0.25567356
43	0x3e9874d3	0.2977663
44	0x3dbc18e4	0.09184435
45	0x3be0525d	0.006845756
46	0xbe1e0843	-0.15432839
47	0xbd8e44df	-0.0694673
48	0xbea3256d	-0.3186449
49	0xbe48e42b	-0.19618289
50	0x3da8f602	0.08250047
51	0x3e9631e9	0.29334953
52	0x3d8300fe	0.063966736
53	0x3e363ecd	0.17797394
54	0x3d2fec7f	0.04295015
55	0x3f01fa8d	0.50772935
56	0x3f46d3ac	0.77666736
57	0x3db42e7d	0.087979294
58	0x3ebfebef	0.3748469
59	0x3f353fa9	0.7080026
60	0xbe8fa610	-0.28056383
61	0x3eef63ed	0.46755925
62	0x3f48fc83	0.785103
63	0xbe236e7e	-0.15960118
64	0x3e94afc4	0.2904035
65	0x3ec73c9b	0.38913426
66	0x3d2b7cdd	0.041867126
67	0x3e38971a	0.1802639
68	0x3eb8cd8e	0.36094326
69	0x3cd9c8bc	0.026584975
70	0x3ea087ae	0.31353515
71	0xbbba22d6	-0.0056804223
72	0x3d1b8f30	0.03797835
73	0xbe82b2ea	-0.25527126
74	0xbd1001c9	-0.035157952
75	0x3e448eed	0.19195147
76	0x3e4e8fd4	0.20172054
77	0x3d7d93a6	0.061908387
78	0xbda80b0a	-0.082052305
79	0xbe090af0	-0.13383079
80	0xbe8d6491	-0.2761579
81	0xbe28b660	-0.1647582
82	0xbd206fcf	-0.03916913
83	0xbc35a2aa	-0.011086145
84	0xbdc55128	-0.0963462
85	0x3d5df289	0.054186378
86	0xbd64e695	-0.055883963
87	0x3e3ae42c	0.18251103
88	0x3d8bf022	0.06832911
89	0xbd4a8aa3	-0.04944862
90	0x3efcd439	0.49380663
91	0x3ec4b38d	0.38418236
92	0x3ef45465	0.47720638
93	0x3e7de860	0.24795675
94	0x3e9be647	0.30449125
95	0x3e9ff5b0	0.31242132
96	0x3ea28cd4	0.31748068
97	0x3ecc267c	0.3987311
98	0x3e97b47c	0.29629886
99	0x3dad74a7	0.08469515
100	0xbdad4dd4	-0.0846211
101	0x3e1dd1d8	0.1541208
102	0x3ed76874	0.4207188
103	0x3edf2332	0.4358154
104	0x3ea71355	0.32631937
105	0x3c8eefea	0.017448384
106	0x3ead3e51	0.33836606
107	0x3ee586ae	0.44829315
108	0xbe2d37fe	-0.1691589
109	0xbe28191b	-0.16415827
110	0x3d971aed	0.073781826
111	0xbd79f64d	-0.061025906
112	0xbe23bb65	-0.15989454
113	0xbe88d74d	-0.2672676
114	0xbd9c607a	-0.07635589
115	0xbc9fabb0	-0.019491047
116	0xbe5c750a	-0.21529022
117	0x3e86302f	0.26208636
118	0x3ecb8985	0.39753357
119	0x3e8bcfa3	0.27306852
120	0x3ee802dd	0.45314685
121	0x3f159958	0.5843711
122	0x3e841577	0.25797626
123	0x3ed7b8bf	0.42133138
124	0x3d6b5ff0	0.05746454
125	0x3dc2ea10	0.095173
126	0xbdc3b86d	-0.09556661
127	0x3e3c3177	0.18378244
128	0x3db13b98	0.08653945
129	0x3f62b13f	0.88551706
130	0x3f5b110e	0.855729
131	0x3f51e720	0.81993294
132	0x3e988bf9	0.2979429
133	0xbdb4b41c	-0.08823416
134	0xbe37f54d	-0.17964669
135	0xbd93f052	-0.07223572
136	0xbd85dcfd	-0.06536291
137	0x3f0f23a0	0.55913734
138	0xbdee428b	-0.11633786
139	0x3f0dfb42	0.55461514
140	0x3e8c7a30	0.27436972
141	0xbe778f3d	-0.24175735
142	0x3e4d6724	0.20058876
143	0x3dd071ed	0.101779796
144	0x3f03ffa4	0.5156195
145	0x3ed0746b	0.4071382
146	0x3e1b224c	0.15149802
147	0x3ec9141e	0.3927316
148	0x3f348bbb	0.7052571
149	0x3ebf0119	0.37305525
150	0x3ec5c65c	0.386279
151	0x3de7d457	0.113197975
152	0x3dbfb34f	0.09360372
153	0x3e711297	0.23542248
154	0xbdcc7212	-0.09982695
155	0xbe8e4050	-0.27783442
156	0xbe0f5837	-0.13998495
157	0x3d4b1553	0.049580883
158	0xbcebf30a	-0.028802413
159	0x3f6c5480	0.92316437
160	0x3f6eb870	0.9325018
161	0x3f114d7b	0.5675885
162	0x3e2f4c9f	0.17119072
163	0x3e3af909	0.18259062
164	0x3e665b87	0.22495852
165	0x3deb31d1	0.11484111
166	0x3cec89cc	0.0288743
167	0xbe25ee3c	-0.1620416
168	0x3c3231f1	0.010876165
169	0x3e14db39	0.14536752
170	0xbd50f1ca	-0.051011838
171	0x3e2b9c39	0.16758813
172	0x3d24e169	0.04025403
173	0xbe92dec8	-0.28685594
174	0x3da269a3	0.07930305
175	0xbe017357	-0.12641655
176	0xbe900a6c	-0.2813295
177	0x3d8ddfc6	0.06927447
178	0xbdece000	-0.11566162
179	0xbd03a4cd	-0.03213959
180	0xbe6c0b4b	-0.23051183
181	0xbe992f93	-0.2991911
182	0xbd2d2476	-0.0422711
183	0x3e4e14a1	0.20125057
184	0x3e8916a5	0.2677509
185	0x3ebbe427	0.36697504
186	0xbe9af2f7	-0.30263492
187	0xbe4ad41c	-0.19807476
188	0xbea42345	-0.3205816
189	0x3ec93600	0.3929901
190	0x3f543350	0.82890797
191	0x3e9b3189	0.3031123
192	0x3ef15931	0.4713836
193	0x3f6c3445	0.92267257
194	0x3eef0225	0.46681324
195	0x3f4c8bb6	0.7990068
196	0x3f0aab01	0.5416718
197	0x3ee67ed2	0.4501863
198	0x3e826790	0.25469637
199	0x3edfd2ed	0.4371561
200	0x3e984c69	0.29745796
201	0x3ef0920c	0.46986425
202	0x3e8a3dba	0.2700022
203	0x3d739b40	0.05947423
204	0x3ef053f4	0.4693905
205	0x3e919c85	0.28439727
206	0xbdc16237	-0.09442561
207	0xbbe3fdaa	-0.0069577293
208	0xbd898d7e	-0.067164406
209	0x3d20feca	0.039305486
210	0xbe494620	-0.19655657
211	0xbe28ff92	-0.16503742
212	0xbdf263bf	-0.11835431
213	0x3e8fe2df	0.28102776
214	0x3e34e176	0.17664132
215	0xbe11120a	-0.14167038
216	0xbe2fed92	-0.1718047
217	0x3dfdde1a	0.12395878
218	0xbe0b71ef	-0.13617681
219	0x3cc51368	0.024057105
220	0xbe3cea2b	-0.18448703
221	0xbe4ddcbf	-0.20103739
222	0xbe765789	-0.2405683
223	0xbe75d974	-0.24008733
224	0xbe5b6b4a	-0.21427646
225	0x3e98bda2	0.29832178
226	0x3ee31b08	0.4435656
227	0x3ed91671	0.42399934
228	0x3ec06949	0.37580326
229	0x3e516783	0.20449643
230	0xbcfd411e	-0.03091484
231	0x3e2b4299	0.16724624
232	0x3dd85565	0.10563163
233	0x3ed03e17	0.4067237
234	0x3e71713c	0.23578352
235	0x3db9e493	0.090768
236	0x3edb2e95	0.42808977
237	0x3ecf66a0	0.40507984
238	0x3e3a74a2	0.18208554
239	0x3ed45611	0.41471913
240	0x3f13dc68	0.5775819
241	0x3ed27546	0.41105098
242	0x3edf250c	0.43582952
243	0xbe1f39ec	-0.15549439
244	0xbe749afa	-0.23887244
245	0xbe6db49b	-0.23213427
246	0x3cc054d1	0.023477944
247	0x3e5f3bf6	0.21800217
248	0xbe2b1d75	-0.16710456
249	0xbe20d126	-0.15704784
250	0xbe0f5c18	-0.13999975
251	0xbd79e193	-0.06100614
252	0xbcbf6b01	-0.023366453
253	0xbe514809	-0.20437635
254	0xbebb0c41	-0.36532786
255	0xbda3c03d	-0.07995651

conv2.bias f4 [10]
0	0x3e557c95	0.20848306
1	0x3ccd5230	0.025063604
2	0x3dab2a66	0.08357696
3	0xbd20cc38	-0.03925726
4	0xbc111e28	-0.0088572875
5	0x3c7af1ff	0.015316485
6	0x3e92676d	0.28594533
7	0x3c126584	0.008935336
8	0x3b0bce64	0.0021332735
9	0x3e9c3f91	0.30517247

fc1.weight f4 [50, 2560]
0	0x3a3386d3	0.00068483985
1	0xbb9a33b6	-0.0047058715
2	0xbc05145d	-0.008122531
3	0x3c4e29de	0.012583224
4	0x3bb864fe	0.0056272736
5	0xbb35fefa	-0.0027770386
6	0x3d705e49	0.058683667
7	0x3d72e82c	0.059303448
8	0x3d76a893	0.06021936
9	0x3ca47872	0.020076964
10	0x3d1bda87	0.0380502
11	0xbb78e515	-0.003797834
12	0x3c70cfa4	0.014697943
13	0x3a2451a9	0.0006268272
14	0x3ca5712a	0.020195562
15	0x3c8f3d97	0.017485423
16	0x3c358a2e	0.011080308
17	0x3a89217d	0.0010462251
18	0x3ca980ed	0.02069136
19	0x3be7c7a3	0.007073359
20	0x3d57571b	0.052573305
21	0xbd1f54ad	-0.038899112
22	0xbc9f4dea	-0.019446332
23	0xbd130428	-0.035892636
24	0x3ceb570f	0.028728036
25	0xbdae40d0	-0.08508456
26	0xbd246922	-0.040139325
27	0x3d19697d	0.037454117
28	0xbb5f515b	-0.0034075591
29	0x3cf1c199	0.02951126
30	0x3d0c1ada	0.034205295
31	0x3c6de62c	0.014520209
32	0x3d5d875b	0.054084163
33	0x3d2a8b87	0.04163697
34	0x3d9531dc	0.072849005
35	0x3d6d8dee	0.057996683
36	0xbc37b2cf	-0.011212065
37	0x3d80d15d	0.06289933
38	0xbdb6c23a	-0.089237645
39	0xbe763d51	-0.24046828
40	0xbea038c6	-0.31293315
41	0xbe9be103	-0.30445108
42	0xbe45fa1e	-0.19333693
43	0x3d3c2e8f	0.04594284
44	0xbb62062f	-0.003448855
45	0x3d514a50	0.05109626
46	0x3d274e27	0.040846016
47	0x3d3fb0fd	0.04679965
48	0xbcf87201	-0.030327799
49	0x3d1ee620	0.038793683
50	0x3d1cf0ce	0.038315587
51	0xbb964299	-0.004585576
52	0xbd625d4e	-0.055264764
53	0x3d32c088	0.043640643
54	0xbbea9952	-0.0071593905
55	0xbe378ed5	-0.1792558
56	0xbe292724	-0.16518837
57	0xbe893366	-0.26797026
58	0xbdc6c769	-0.09706003
59	0xbdd4c552	-0.10389198
60	0xbd13d681	-0.03609324
61	0xbc84285a	-0.016132522
62	0x3cebff04	0.028808124
63	0x3d3de593	0.046361517
64	0xbd589de6	-0.05288496
65	0x3d94b5ca	0.07261236
66	0x3dcf7d7e	0.101313576
67	0x3df0839e	0.11743854
68	0x3d986756	0.07441585
69	0xbd362a47	-0.044473913
70	0xbc94cabd	-0.01816308
71	0xbda79e64	-0.081845075
72	0xbe3e0e36	-0.18560109
73	0xbea5cad7	-0.32381317
74	0xbe0f0c94	-0.13969642
75	0x3e037e33	0.1284111
76	0x3e4c478d	0.1994917
77	0x3e5355d1	0.20638205
78	0x3dc90bf5	0.09816734
79	0xbd20e85e	-0.039284103
80	0x3da694a3	0.08133819
81	0xbd8e1774	-0.06938067
82	0xbe286623	-0.16445212
83	0xbe6a0395	-0.22852929
84	0xbe459656	-0.1929563
85	0xbe636537	-0.22206579
86	0xbe692fdb	-0.22772162
87	0xbee19245	-0.44056907
88	0xbf394bce	-0.72381294
89	0xbefdd4cd	-0.49576417
90	0xbe8458cb	-0.25848994
91	0xbdd5097e	-0.10402201
92	0xbe3d3ef6	-0.18481049
93	0xbdf97c94	-0.121819645
94	0xbe1f4713	-0.15554456
95	0xbe78f931	-0.24313809
96	0x3dfe61e2	0.124210134
97	0x3e70dad0	0.2352097
98	0x3e8cd0e3	0.27503118
99	0x3e5a2f0b	0.21307008
100	0x3e0562be	0.13025948
101	0xbc83831c	-0.016053729
102	0xbe3acee0	-0.18242979
103	0xbeb85bbb	-0.36007485
104	0xbed54db1	-0.41660836
105	0x3ca57e54	0.02020184
106	0x3de15651	0.11002792
107	0x3da76d7e	0.08175181
108	0x3e687334	0.22700197
109	0x3e1f59b8	0.15561569
110	0x3da41a32	0.08012809
111	0x3daf672a	0.08564599
112	0x3c4cf359	0.0125091905
113	0x3d8c959e	0.06864475
114	0x3e11d861	0.14242698
115	0x3df3b351	0.11899436
116	0x3de0f05d	0.10983346
117	0x3d3cc0cb	0.0460823
118	0x3dfe3781	0.1241293
119	0x3e0453f0	0.12922645
120	0xbc4dc58c	-0.012559306
121	0x3c0562ca	0.008141229
122	0xbbb6e375	-0.005581314
123	0x3d64f4d9	0.055897567
124	0x3e0ba6c3	0.13637833
125	0x3e0fb15f	0.14032505
126	0x3da3b9f2	0.07994451
127	0x3d9f2c5f	0.07772135
128	0x3e1f3dfc	0.15550989
129	0x3d4bbe5b	0.049742084
130	0xbd8ae502	-0.06781961
131	0xbd4beefb	-0.049788456
132	0xbc890f35	-0.016730884
133	0xbd53fa0b	-0.05175213
134	0x3d2c0156	0.04199346
135	0x3d45393c	0.048150286
136	0xbd9c0a39	-0.07619137
137	0xbe0fbddc	-0.1403727
138	0xbd9949b8	-0.07484764
139	0x3c818638	0.01581107
140	0xbd01dabd	-0.031702746
141	0x3d68f5a7	0.056874897
142	0x3e029d5d	0.12755342
143	0x3e13fa93	0.14451055
144	0xbb556f59	-0.003256759
145	0x3d86a250	0.065739274
146	0x3d989866	0.07450943
147	0x3dbb9b55	0.091604866
148	0x3d5781ea	0.05261413
149	0x3cac106e	0.021003928
150	0xbd1518e7	-0.0364007
151	0xbe4b327b	-0.19843476
152	0xbe900cf9	-0.28134897
153	0xbdb65279	-0.08902449
154	0xbd8f3642	-0.06992771
155	0xbcf939f2	-0.030423138
156	0x3c61041c	0.01373389
157	0xbc7c969c	-0.015416767
158	0x3b8d87ff	0.0043191905
159	0xbc914b3c	-0.01773607
160	0xbd8c47e3	-0.06849649
161	0xbd42826b	-0.047487658
162	0x3dcca9d9	0.09993333
163	0x3dc46ad2	0.09590687
164	0x3db2dc24	0.08733395
165	0x3e463875	0.19357474
166	0x3e280b3e	0.16410539
167	0x3da8593e	0.082201466
168	0xbd109881	-0.03530169
169	0x3e1904b6	0.14943203
170	0x3e10a232	0.14124373
171	0x3e1ee29a	0.15516129
172	0x3daf1c56	0.085503265
173	0x3d5e5b75	0.05428644
174	0x3c00cc86	0.007861262
175	0xbda4234e	-0.08014546
176	0xbce4e558	-0.02794139
177	0xbced59bb	-0.02897345
178	0xbca9aece	-0.020713236
179	0xbd761359	-0.060077045
180	0xbc94cd1d	-0.018164212
181	0xbd2c0986	-0.04200127
182	0xbbe98614	-0.007126579
183	0x3d0e4494	0.03473337
184	0xbe02a374	-0.12757665
185	0xbe4b5980	-0.1985836
186	0xbc0fbd6c	-0.008773189
187	0x3dfc047c	0.12305543
188	0x3e20eec8	0.15716088
189	0x3d5775ea	0.052602686
190	0x3d15f423	0.03660978
191	0x3d3e8b93	0.046519827
192	0xbc31f5a8	-0.010861792
193	0xbd24edb2	-0.040265746
194	0xbca5afe2	-0.020225469
195	0xbc87d019	-0.01657872
196	0xbe227fd6	-0.15869078
197	0xbe9ecd4c	-0.31016004
198	0xbef0aed7	-0.47008392
199	0xbf0f83f7	-0.5606074
200	0xbf0c1053	-0.5471241
201	0xbe9b6031	-0.30346826
202	0xbe20c1d0	-0.15698934
203	0x3dc71f7b	0.09722801
204	0x3d0dfe5f	0.034666415
205	0x3ccb4065	0.02481098
206	0x3c27f532	0.01025133
207	0x3d033b86	0.032039188
208	0xbc637503	-0.013882878
209	0xbc4e322f	-0.012585207
210	0xbd5755ed	-0.05257218
211	0xbde3833b	-0.111090146
212	0xbd7e74dc	-0.062123165
213	0x3d0120e6	0.031525515
214	0xbe594fb1	-0.21221806
215	0xbf236460	-0.63825035
216	0xbf25ee7b	-0.6481702
217	0xbea7c3b0	-0.32766485
218	0x3deaea9c	0.114705294
219	0x3cbfee65	0.023429105
220	0xbcbb8780	-0.02289176
221	0xbd3ce7b1	-0.046119396
222	0x3b9c112f	0.0047627906
223	0xbca8675e	-0.020557102
224	0xbdb1b3c9	-0.086768694
225	0xbe21bdb2	-0.1579502
226	0xbe90b58b	-0.28263506
227	0xbd131260	-0.035906196
228	0x3db50e27	0.0884059
229	0xbd98d648	-0.07462746
230	0x3d5a91e4	0.05336179
231	0x3da64a13	0.08119597
232	0xbda711c7	-0.08157688
233	0xbe1cf151	-0.1532643
234	0xbf0ad5dc	-0.54232574
235	0xbe4a0bea	-0.19731107
236	0xbe25a3e2	-0.16175798
237	0xbe44f55c	-0.19234222
238	0xbe4db783	-0.20089535
239	0xbe6874ec	-0.22700852
240	0x3d0c2fd1	0.03422529
241	0xbac84e8a	-0.0015282196
242	0x3cfff381	0.031244041
243	0x3c753f44	0.014968697
244	0x3c26a6f2	0.010171639
245	0xbd024291	-0.031801764
246	0xbbc42d1d	-0.0059868232
247	0x3d9e625f	0.077336065
248	0x3d81aaa1	0.06331373
249	0x3c880c1a	0.016607333
250	0xbae14870	-0.0017187726
251	0xbcb8f7a2	-0.022579018
252	0x3cd243f1	0.025667163
253	0xbb9b8cd2	-0.0047470117
254	0xba0ec3b3	-0.00054460316
255	0x3bb113d0	0.005403973

fc1.bias f4 [50]
0	0x3bfb66ff	0.00767219
1	0x3cf03c1b	0.029325536
2	0xbd412924	-0.047158375
3	0x3bd32c0f	0.006444461
4	0x3d060989	0.032723937
5	0xbb9a8713	-0.004715809
6	0xbce42942	-0.027851705
7	0xbcf556a9	-0.02994855
8	0xbcc2eea0	-0.023795426
9	0xbd2637a8	-0.04058042
10	0xbd24a61a	-0.04019747
11	0xbcebf725	-0.028804371
12	0xbd0275b6	-0.03185054
13	0xbc872774	-0.016498305
14	0xbd0786cf	-0.033087548
15	0xbd20f3ac	-0.039294884
16	0xbd0ab97d	-0.0338683
17	0xbd2a4df3	-0.041578244
18	0xbbdb78c1	-0.0066977446
19	0xbc689476	-0.014195552
20	0xbb69f328	-0.003569791
21	0xbd0e1379	-0.03468654
22	0xbce55480	-0.027994394
23	0xbbda1d07	-0.0066562924
24	0xbd16c6f9	-0.03681085
25	0xbcf3e744	-0.029773362
26	0xbc473479	-0.012158507
27	0xbcd3c73a	-0.025851835
28	0xbd14f536	-0.036366664
29	0xbc8decb3	-0.017324781
30	0xbcc4c784	-0.024020918
31	0xbd29ea7e	-0.041483395
32	0xbcbb929c	-0.022897057
33	0xbcf9ae46	-0.030478608
34	0xbd27c7c6	-0.040962003
35	0xbc5e795d	-0.01357874
36	0xbbd3efc8	-0.006467793
37	0xbc3447ef	-0.011003478
38	0xbd14151e	-0.03615295
39	0xbc04b88c	-0.00810064
40	0xbb8ee16a	-0.0043603675
41	0xbd294518	-0.04132566
42	0xbcc3954a	-0.023874898
43	0xbb8a0261	-0.0042117094
44	0xbcd5f0b7	-0.026115758
45	0xbd166198	-0.036714166
46	0xbd122501	-0.03567982
47	0xbd2a7dcc	-0.041623875
48	0xbbab7abc	-0.005233137
49	0xbce9a6bf	-0.028521894

fc2.weight f4 [10, 50]
0	0x3b3b7440	0.0028603226
1	0x3da981b4	0.08276692
2	0xbd350d24	-0.044201985
3	0xbd352c12	-0.04423148
4	0x3d37fbdc	0.044917926
5	0x3e0e8ed5	0.13921674
6	0x3da372ec	0.07980904
7	0x3cece258	0.028916523
8	0xbd9e7431	-0.077370055
9	0xbd1fb3ae	-0.038989715
10	0x3df59f7e	0.11993311
11	0xbde133e8	-0.109962285
12	0x3d8ee8c8	0.06977993
13	0xbdab1f6c	-0.083556026
14	0x3dafa15a	0.08575697
15	0xbd119e96	-0.03555163
16	0xbc89d134	-0.016823389
17	0x3de5033a	0.11182256
18	0xbdbf732c	-0.09348139
19	0x3d002b54	0.03129132
20	0x3c6943b0	0.014237329
21	0x3ba93800	0.0051641464
22	0x3df6e41e	0.12055229
23	0xbc3753c0	-0.011189401
24	0xbdd8c875	-0.10585109
25	0xbe07b195	-0.13251336
26	0x3d355514	0.04427059
27	0x3dd02ddc	0.10164997
28	0x3d275f00	0.040862083
29	0xbdf1ee9c	-0.11813089
30	0xbd18f992	-0.037347384
31	0xbdbb43ad	-0.091437675
32	0xbdabd731	-0.08390654
33	0xbdc01341	-0.093786724
34	0x3c8fe4a8	0.017565086
35	0x3d89e04e	0.06732236
36	0xbd9c4dae	-0.07632004
37	0xbd9b2475	-0.07575313
38	0x3dfd543a	0.123695806
39	0x3dd826f6	0.10554306
40	0x3c122470	0.00891982
41	0x3c4a6fb0	0.01235573
42	0x3dd5ad8e	0.104334936
43	0x3d685cb8	0.05672905
44	0xbcf69254	-0.030099072
45	0x3dc47cfa	0.0959415
46	0x3deacb5a	0.114645675
47	0x3e03fbed	0.12889071
48	0x3df7c45e	0.12098001
49	0xbdcf14f9	-0.10111422
50	0xbd29ef5a	-0.04148803
51	0x3c2bfa60	0.010496706
52	0x3df3b45e	0.11899637
53	0xbcb7d470	-0.022440165
54	0x3cfb4908	0.030674472
55	0xbcbc6e8c	-0.023001932
56	0xbdc09c66	-0.09404831
57	0x3e04f4a1	0.12983944
58	0xbdbbc5ac	-0.09168562
59	0x3d0b6944	0.034035936
60	0x3c339040	0.010959685
61	0xbe02f41b	-0.12788431
62	0xbdf67d44	-0.12035611
63	0x3e0ca535	0.13734896
64	0xbdee1c1c	-0.11626455
65	0x3a2ce800	0.000659585
66	0x3dbdc014	0.092651516
67	0x3df31ed6	0.11871116
68	0x3c990c00	0.01868248
69	0xbbd9ae00	-0.006643057
70	0x3d307ea8	0.04308954
71	0x3de9c9c2	0.114154354
72	0xbb9c79a0	-0.004775241
73	0xbc1d84f0	-0.009614214
74	0x3e0661d1	0.13123251
75	0xbd946dee	-0.0724753
76	0xbe10affa	-0.1412963
77	0x3d7eef54	0.06223996
78	0x3d7464cc	0.05966644
79	0xbdde75c2	-0.10862304
80	0x3d682648	0.056677133
81	0xbd62cba0	-0.055369973
82	0x3d940720	0.072279215
83	0x3d8b0b24	0.06789234
84	0x3dbb209c	0.09137079
85	0x3e0f32ef	0.13984273
86	0x3df331ce	0.11874734
87	0x3da3967c	0.07987687
88	0xbe0f8aa7	-0.14017735
89	0x3e02e319	0.12781943
90	0x3b62fd00	0.0034635663
91	0x3d987f86	0.07446198
92	0x3d424c00	0.04743576
93	0x3e070061	0.13183738
94	0xbd92b409	-0.07163245
95	0xbd70d396	-0.058795534
96	0x3cf7d098	0.030250832
97	0x3dbe6c24	0.0929797
98	0xbe0c73c7	-0.1371604
99	0xbbf58ba0	-0.0074934512
100	0x3d0def78	0.034652203
101	0xbd4e58d2	-0.050377674
102	0x3d4f7440	0.050647974
103	0xbcc1f674	-0.023677088
104	0xbd99b7b5	-0.075057425
105	0xbcaf7460	-0.021417797
106	0x3de51d6e	0.11187254
107	0x3af85580	0.001894638
108	0xbd839d13	-0.06426444
109	0x3dcc4fc4	0.099761516
110	0xbdb0e764	-0.08637884
111	0xbd13d35a	-0.036090232
112	0xbd0a7fd2	-0.033813305
113	0xbdb4b884	-0.08824256
114	0x3ba72780	0.0051011443
115	0xbbf309a0	-0.007416919
116	0x3dce6162	0.10077168
117	0x3d69de78	0.05709693
118	0xbd31145e	-0.043232314
119	0x3d498100	0.04919529
120	0xbd265fb2	-0.040618606
121	0xbca65b98	-0.020307347
122	0xbbd6e7a0	-0.0065583736
123	0xbdb39eb9	-0.08770508
124	0xbc477c80	-0.012175679
125	0xbdb6a914	-0.08918968
126	0x3e0700d3	0.13183908
127	0x3e08618d	0.13318463
128	0xbe03ce54	-0.12871677
129	0x3c4d3940	0.0125258565
130	0xbdc4efd7	-0.09616058
131	0x3dccb146	0.0999475
132	0xbd2d0656	-0.04224237
133	0xbe056ad5	-0.13029034
134	0x3d81f210	0.06344998
135	0x3d62b7c8	0.05535105
136	0x3d4b674c	0.04965906
137	0x3d8aecaa	0.06783421
138	0x3bd82160	0.0065957755
139	0x3dfb88f2	0.122819796
140	0x3e005f03	0.12536244
141	0xbe061b0a	-0.13096252
142	0x3c640f00	0.013919592
143	0xbdb9c12a	-0.09070046
144	0xbddedc56	-0.108818695
145	0x3c5ebe20	0.013595134
146	0x3dc281bc	0.09497401
147	0x3deb0716	0.11475961
148	0xbc392980	-0.011301398
149	0xbbd5d300	-0.0065253973
150	0xba1dc600	-0.0006018579
151	0x3daedb3c	0.085379094
152	0x3da6f1b8	0.08151573
153	0x3d423a48	0.047418863
154	0xbca6328c	-0.020287775
155	0x3dd7e888	0.10542399
156	0x3bfe4540	0.00775972
157	0xbdebf1fa	-0.11520763
158	0x3d760980	0.060067654
159	0x3d26d4a4	0.040730134
160	0xbc9e83a8	-0.019349888
161	0xbdc44d1e	-0.095850214
162	0xba45c300	-0.0007544011
163	0x3d26655c	0.040624008
164	0x3c0bddd0	0.008536771
165	0xbcccaf58	-0.024985954
166	0xbd9909dd	-0.074725844
167	0x3c78c5f0	0.015183911
168	0xbd2094a0	-0.03920424
169	0xbd16447c	-0.036686406
170	0xbd5df630	-0.05418986
171	0x3dafb724	0.08579853
172	0x3dcd20c2	0.10016014
173	0xbb8a98c0	-0.004229635
174	0xbdef0871	-0.11671532
175	0xbdfbb1c4	-0.122897655
176	0x3d80f62c	0.062969536
177	0xbd1174ca	-0.03551177
178	0x3b389680	0.0028165877
179	0x3d1d2874	0.038368657
180	0xbda0d64f	-0.07853376
181	0xbe092098	-0.1339134
182	0x3def7daa	0.116938904
183	0xbd20b476	-0.0392346
184	0x3dbc49d0	0.09193766
185	0x3dfae4f6	0.12250702
186	0xbde3792a	-0.111070946
187	0x3cb48c78	0.022039637
188	0xbd72a414	-0.05923851
189	0xbdc1e857	-0.094681434
190	0x3d043598	0.032277673
191	0xbb88e8c0	-0.0041781366
192	0x3cf60088	0.03002955
193	0xbd1cc37e	-0.038272373
194	0x3bd31e60	0.00644283
195	0x3e09c98d	0.13455792
196	0xbcbf81cc	-0.023377322
197	0xbdfa142b	-0.12210878
198	0x3d03c5ec	0.032171175
199	0x3d1c4514	0.038151816
200	0xbda18ebb	-0.07888552
201	0xbd2609a0	-0.040536523
202	0x3d0f66d4	0.035010174
203	0x3c834a70	0.016026706
204	0xbdead58d	-0.11466513
205	0xbceff000	-0.029289246
206	0xbd334134	-0.043763354
207	0x3d9ec6a2	0.0775273
208	0x3dbd7b2a	0.09252007
209	0xbe0b515e	-0.13605258
210	0x3e0469d9	0.12931003
211	0x3d8530d8	0.06503457
212	0x3d8321be	0.0640292
213	0xbd13bba4	-0.03606762
214	0x3d8c1f5a	0.06841917
215	0x3b90c880	0.0044184327
216	0xbe02a728	-0.12759078
217	0xbd9c8c70	-0.07643974
218	0x3e0e0879	0.1387042
219	0xbde6871e	-0.1125624
220	0xbdf76061	-0.1207893
221	0xbd8d0d42	-0.06887294
222	0x3cac2490	0.021013528
223	0x3de0b9c2	0.109729305
224	0x3c6a3b60	0.014296383
225	0xbdfb27b6	-0.12263434
226	0xbc5d9970	-0.013525352
227	0x3e0d478b	0.13796823
228	0xbd7b9920	-0.06142533
229	0x3dfff4fe	0.124979004
230	0x3dae1266	0.08499603
231	0xbc9f6894	-0.019459046
232	0x3dca193a	0.09868093
233	0xbcdbad44	-0.026816018
234	0xbcdcabc8	-0.02693738
235	0x3c313110	0.01081492
236	0x3b3361c0	0.0027371496
237	0x3ddb074c	0.10694751
238	0x3c22df40	0.009940922
239	0xbe046139	-0.12927713
240	0xbe0161c6	-0.12634954
241	0x3dc46a0a	0.09590538
242	0x3cd00298	0.025391862
243	0xba254f00	-0.00063060224
244	0xbd7f9164	-0.062394515
245	0xbdd9e096	-0.106385395
246	0xbae6e880	-0.0017616898
247	0x3daeee1e	0.08541511
248	0x3e087945	0.1332751
249	0x3abd8080	0.0014457852
250	0xbe0f0057	-0.13964973
251	0xbd187ea8	-0.037230164
252	0x3d21fb50	0.03954631
253	0xbe02a201	-0.12757112
254	0xbd3b8dca	-0.045789517
255	0xbdb3280c	-0.08747873

fc2.bias f4 [10]
0	0x3d758bd4	0.059947804
1	0x3dcbd7b2	0.0995325
2	0xbdd8426f	-0.10559546
3	0x3df4c3ba	0.119513944
4	0x3aea2900	0.0017865002
5	0xbd9f422e	-0.07776295
6	0xbdc0a616	-0.094066784
7	0x3cb67418	0.022272155
8	0x3c269640	0.010167658
9	0x3de34956	0.11097972
