project/weights/val_acc39.92.ckpt (torch_old, 973603 bytes, 8 tensors)

conv1.weight f4 [3, 1, 3, 3]
00000000: eef9 87be 67f6 00be 7504 09be 5c91 2f3e
00000010: 4e6e 483c b8e1 bdbd 8bbb d5be ec64 a9bc
00000020: 863d 81be 4267 82be f369 7e3e ff6d 92be
00000030: 9937 bd3c 4009 213e a30e 02be 6639 37bb
00000040: bfee 8e3e 6381 853e 426c b83e 5a07 0fbc
00000050: af9e 443e 8d37 7bbe 9fee 4a3e f86b 053e
00000060: c55f 71be 713d a73d 33b1 45be
-0.2655787 -0.12593995 -0.13380606 0.17145294 0.01223333 -0.09271568 -0.41744646 -0.020678006
-0.2524225 -0.25469404 0.24845104 -0.28599545 0.0230978 0.15726185 -0.12700896 -0.0027957796
0.27916524 0.26075277 0.36020094 -0.00872978 0.19201158 -0.2453291 0.19817589 0.13029468
-0.2357169 0.08166016 -0.19305877

conv1.bias f4 [3]
00000000: 7def 753e 954e 3bbe 83b5 1cbe
0.24017139 -0.18291695 -0.15303616

conv2.weight f4 [10, 3, 3, 3]
00000000: 377b 11bd e4e1 71be 4ce3 cabc 905b 93be
00000010: c234 98bd be49 1dbe e940 8e3d 0a84 99be
00000020: 7722 febd 1a11 8a3d 5e43 75be dcff 20be
00000030: ba08 88be 9c16 39be a6b2 6f3d f72d 0dbe
00000040: a0a1 84be eebd fabd 2644 cbbd f279 2a3d
00000050: c619 1f3d 97db 533d af23 ad3c aa5f d93c
00000060: 6829 3dbe c21f 22be b7b0 673d c6d4 fc3d
00000070: 191d d1bd 6ab3 febd 0265 db3d c56f 55be
00000080: ec91 08be 1eeb c43d b847 223d 7045 e03c
00000090: fa67 a7bd 063a 58be fffb 5ebe f3d6 43be
000000a0: 1fdc 67be 232b 58be e8fb 17bd 5639 fdbb
000000b0: 524d bebc 1f9f 31be ef14 0d3e 7b49 d0bd
000000c0: 405a b7bc a201 98bd ff8c f03d ab37 e5bd
000000d0: 4c0c 82bd 6bcd 1dbe 4d1f 183e d4c1 01be
000000e0: ff2f 99bd 53b8 c5bd 63e0 233d c44a 1abe
000000f0: 6314 c3bd b94f a5bd a403 37be dca6 34be
00000100: e1fd f3bd 2a20 e2bd 071a ebbd f2ff 49be
00000110: c0e5 b2bc 3a91 aa3b c1e8 903d af37 debd
00000120: 00fc 77be acbd 05be 610d 3abd 2fbc 42be
00000130: cc9d 83be 988d b7bd e4af b0bc 540c 1ebd
00000140: a363 43bc 5cff 74bd 0d88 243e 38b8 0bbe
00000150: c063 0dbc aec1 31be 5021 12bd 5131 08be
00000160: 4826 70bd cec1 983d 54d2 1ebe 9b6f d4bd
00000170: 7032 6dbd 42ee 05be dede 27be ffcc 3d3e
00000180: 38a9 5fbd b036 583c 9d79 34be 7815 36be
00000190: 00e4 64bd 76fb c3bd 0088 29b9 f5dc 07be
000001a0: 5be4 c8bd 446b 1c3d e116 0fbe 5887 5ebd
000001b0: 11e2 9b3d b1a1 44be d912 6fbd 4be1 71be
000001c0: 402e 2b3e bc13 0a3d 178b 68bd babf c83c
000001d0: b300 98bd f63d 85bd b0f0 51be 14e5 4bbd
000001e0: 7816 283d 7d97 4ebe 0237 813d 1bef d7bd
000001f0: 2ce5 a5bb d83d 4c3d afee 88be d8e1 84be
00000200: 20f1 32be 2748 9dbd 9bea 69be 23e5 c9bd
00000210: e99d 91be 4728 b2bd a225 1dbb d7a5 42bc
00000220: 175e d9bd b63d 8cbe c58e 353e e036 e3be
00000230: 4a7d 56be 67e4 eebd 92a4 7ebe 43fe 3fbd
00000240: b682 bfbd 4673 d9bd 1a72 373d 6332 2abd
00000250: 550a 23be f96f d5bc a28c 40be 08a7 aabe
00000260: d532 a7be f33a 25bd 296b 0cbe e871 4b3c
00000270: 33ac d1bd 0b3e fb3d b841 9ebd 5600 b7be
00000280: afd8 e8be 6020 5cbe d772 85be 86a6 a4bd
00000290: 48ef 96bd d8de 8ebd d2de 163d aafe f4bd
000002a0: 5a00 173d 4ad6 95bd 2027 423d 6899 38bd
000002b0: 10cb 403d f0fb a4bd 1821 7f3d e5a9 0ebe
000002c0: 8766 f5bd 897b 94bd 1536 73be 1a80 4cbd
000002d0: 9238 6abe 367b 20bd 64fa fdbd 0716 84be
000002e0: a938 a6bd 51fd 513c cfa5 d1bc e5bd 49be
000002f0: 8877 61be db1e ff3d 3cd4 d23d bb78 17be
00000300: 3035 6abe e078 60be 2343 80bd 82ee 723d
00000310: 6637 9d3d c84a 44be ca90 17be 854e 4cbc
00000320: da00 d1bd f8c0 77be e989 253d 65e1 8ebc
00000330: 8534 183d 18f6 31be b04e 0cbe 2fd6 66be
00000340: ca47 12be 4815 24be 7979 c9bd d4d9 5d3d
00000350: 3a1f 5cbe f3d3 3bbe 7e62 10bd cabb 52be
00000360: f860 30be eb19 73bd 785b d0bc 74ad d7bd
00000370: 5f82 3c3e 4422 58bc 5d73 8ebd ae46 7ebe
00000380: 18ae 24be 3ea3 27be f7e8 40bc 267d d73d
00000390: 6544 80be 863c 683c 9c57 afbd d282 a7be
000003a0: 4aa2 81be 8a31 17be 89a4 3dbe fd8f 26bd
000003b0: c8d7 7abe 827d 9cbe 1f0a 29be eb52 41be
000003c0: 892a 54bd f797 77bd a752 89be c441 6b3e
000003d0: 5817 a03d 4b6f 93bc c4e7 a23d a0aa 13be
000003e0: 345c 2ebe 779d 4bbd e89d 61bd 0ea2 41bc
000003f0: 57cd 0bbe f594 b53d 863e 1ebe 8e31 2dbe
-0.035517897 -0.23621327 -0.024766587 -0.28780794 -0.07431938 -0.15360162 0.069459744 -0.2998355
-0.124089174 0.06741543 -0.2395148 -0.15722603 -0.26569158 -0.18075031 0.05851998 -0.13787065
-0.2590456 -0.122432575 -0.09925108 0.041620202 0.03884294 0.05172309 0.02113518 0.026534874
-0.18472826 -0.15832427 0.056565013 0.12345271 -0.10210628 -0.12436564 0.10712625 -0.20843418
-0.13336915 0.096151575 0.039619178 0.02737686 -0.08174129 -0.21115884 -0.21775816 -0.19124965
-0.22642563 -0.21110205 -0.03710547 -0.0077277822 -0.023230229 -0.17345856 0.13777517 -0.10170265
-0.022381902 -0.074221864 0.11745643 -0.111922584 -0.06350002 -0.15410392 0.1485569 -0.12671596
-0.07479858 -0.09654298 0.040008914 -0.15067583 -0.09525373 -0.080718465 -0.17872483 -0.17641777
-0.11913658 -0.11041291 -0.11479574 -0.19726542 -0.021838069 0.0052053006 0.07075644 -0.108504646
-0.24217224 -0.13060635 -0.045422915 -0.19017099 -0.25706327 -0.08962554 -0.021568246 -0.038585976
-0.011925611 -0.059813842 0.16067524 -0.13644493 -0.008629739 -0.17359039 -0.0356763 -0.13300063
-0.058630258 0.0745884 -0.15509921 -0.103728496 -0.05790943 -0.1307917 -0.16393611 0.18535231
-0.05460474 0.013196632 -0.17624517 -0.17781627 -0.0558815 -0.09569447 -0.0001616776 -0.13267882
-0.0980918 0.038188234 -0.13973571 -0.054328293 0.07611478 -0.19202305 -0.058367584 -0.23621099
0.16716862 0.033710226 -0.05677327 0.024505485 -0.07422008 -0.06505959 -0.20501971 -0.049779013
0.041037053 -0.20174976 0.0630932 -0.105436526 -0.00506272 0.049863666 -0.267446 -0.25953555
-0.17474794 -0.076797776 -0.22843401 -0.098581575 -0.28440788 -0.086990885 -0.002397873 -0.01188036
-0.10613649 -0.27390832 0.17730244 -0.44377804 -0.20946231 -0.11664658 -0.24867466 -0.046873342
-0.09351103 -0.1061769 0.04478655 -0.04155196 -0.1592191 -0.02605437 -0.18803647 -0.3333056
-0.3265597 -0.04033942 -0.13712753 0.012417294 -0.102379225 0.12267693 -0.077273786 -0.35742444
-0.45477816 -0.21496725 -0.26064178 -0.08039574 -0.07369858 -0.06976098 0.03683359 -0.11962636
0.03686557 -0.07316263 0.047400594 -0.045068175 0.047068655 -0.08055866 0.06228742 -0.13931997
-0.11982446 -0.07250125 -0.237511 -0.049926855 -0.22873142 -0.039180003 -0.12401274 -0.25798056
-0.08116276 0.012816743 -0.025591759 -0.19701345 -0.22018254 0.12457057 0.10294387 -0.14792149
-0.22871852 -0.2192111 -0.06262805 0.05930949 0.07676582 -0.19169152 -0.14801326 -0.012469892
-0.102052405 -0.24194705 0.040414724 -0.01744146 0.03715946 -0.17379034 -0.13701892 -0.22542642
-0.14285198 -0.16023743 -0.09837622 0.054162815 -0.21496287 -0.18342571 -0.03525018 -0.20579448
-0.1722449 -0.05935089 -0.02543424 -0.105311304 0.18409108 -0.013191763 -0.069555975 -0.2483165
-0.16082036 -0.16370866 -0.011774293 0.10521917 -0.2505218 0.014174586 -0.08561632 -0.32716995
-0.2531913 -0.14764991 -0.18519796 -0.04066466 -0.24496377 -0.30564505 -0.16507767 -0.18879287
-0.051798377 -0.06044766 -0.2682087 0.22974306 0.078169525 -0.017997405 0.07954362 -0.14420557
-0.1702736 -0.049710717 -0.05508223 -0.011818422 -0.1365255 0.08866302 -0.15453538 -0.16913435

conv2.bias f4 [10]
00000000: c098 a6bc 2015 06bd 92b3 173d 44b2 89bd
00000010: d17c 8ebe 007a 933d b770 4e3d 4f58 2abd
00000020: 0fa0 35bc 1ac0 86be
-0.020336509 -0.03273499 0.037036486 -0.067234546 -0.27829602 0.07201004 0.050400462 -0.041588124
-0.011085524 -0.26318437

fc1.weight f4 [50, 4840]
00000000: 7d1c d3bc 731f 63bc 90ee 1e3a a861 a33a
00000010: ef08 34bc d456 ec3b 094d 753d 896c 1ebd
00000020: 0e51 3bbd 6118 1fbd a4d6 da3c 7b2c 6abd
00000030: 38e9 5b3b ba10 4ebd 09fe 013c dfad 273d
00000040: e81c 43bd 9c41 32bd 4a62 9dbd e869 cbba
00000050: f9fe 3c3d ba77 143c ec25 32bc 8e2e 16bc
00000060: c3d3 123d 2dea 113d 30dd d03c 2d77 b53d
00000070: b557 c63d a2ef ba3c af43 1d3d 0090 de3c
00000080: a463 c03d 0b0f 81bb 4380 9739 63b1 f039
00000090: a6ba ca3c ae56 29bd e16e 6dbd 8ff1 f13a
000000a0: 52b1 b2bb 7c5f 90bc f830 c03c 122b 91bb
000000b0: eea7 a4bb bfd0 29bd 597e ef3b ae88 083d
000000c0: 8b61 793c 5c5e 2f3d c5cb 993d ecd0 e63c
000000d0: 9a91 113d 3e9e 713d 7299 453d 088e a03c
000000e0: 901f 7b3d cafd 003d 964e 533c d482 7abc
000000f0: 2465 753d 4996 10bd ac51 bc3c 5c6a b2bb
00000100: ed90 573c f35f 41bc 18c9 21bd 5a3e a8bc
00000110: f3b2 583d 8fb7 4c3c 8d61 bcbb db4a 3e3b
00000120: 5f7a 2c3d 2d6b e0bc b0ca 6e3c fe7f a83c
00000130: 590c 353c 427b de3c 3d11 b63c d70a d33c
00000140: a407 d33c 289c 1abd 39e5 20bd ca37 eabc
00000150: fb02 ee3c bac3 813c 4b95 9d3c 84e0 10bc
00000160: 585a 6dbd 1be3 06bd 8378 933b 626b 413d
00000170: a0a0 863c 6a1f 8fbc 2d7a 473c 8769 ef3a
00000180: 4f65 51bc 4790 4d3c b34a ddbc 6338 a5bc
00000190: 49f5 a7bc 6438 b13c 367e 38bd 1ca2 0cbd
000001a0: 6f78 303c 8372 613d 1fe8 8e3d e8d9 1c3d
000001b0: 11d1 5c3c b0e5 51bb 6385 993c a3c1 6fbc
000001c0: e09e 4d3d ed9c 8e3d b1b5 483d c567 3a3d
000001d0: f91b b73d dd6d 543d 9ec3 b33c 0d50 c73c
000001e0: e880 1cbc 7a40 28bc b903 daba 9434 373d
000001f0: cd8d f63b 4252 253d 294d 613d 12f6 45bb
00000200: f429 023d 94be fcbb 8d38 ff3c 0b69 5fbc
00000210: 89cf 843c 38dd 03bc 0e01 883d f7ff 6a3d
00000220: e566 783d 6450 983d de80 9e3d 540d 483d
00000230: f3e1 c9bb 362f 1c3d 75f0 0f3d faf1 1e3c
00000240: 5704 b43c 2d01 1c3c 4bb3 1ebd c772 843c
00000250: 04c9 533d 7c41 eb3b 4efa 183d 208a 3a3c
00000260: 28d1 bfbc d60d 66bc c887 f43c a807 26bd
00000270: 748d 11bc 59d1 d6bb 01f9 2abb 868d 053d
00000280: 9f94 873d c783 123c 1027 2fbc 1d19 2cbc
00000290: 8b04 19bc 3308 e9bc e159 b7ba 7aaa 3c3c
000002a0: 99f1 db3c 25db 0b3c dd73 b93b 638b 873c
000002b0: 664e b4bc cc8b e0bc c651 25bc e266 603c
000002c0: 29bf 3cbd 3e15 93bc bd43 b6bc 95af 7bbb
000002d0: dacb c33b 90fa df3c 3afc c23c 0bf6 bd3c
000002e0: 0ec4 7cbb 95ae b6b9 0116 883a abee 4a3b
000002f0: dbed 3abc 91f1 f0bb 3f29 263c 56c7 e43c
00000300: 97b6 3c3c 042d c23a 09b1 c3bc ef73 6d3c
00000310: 23bf 4e3d ba55 3a3d 44da db3b 34ce 873a
00000320: 7f63 bdbc 6fe0 8cbc 0ced b8bc d4d3 6c3b
00000330: 17c2 263c 603e 4a3c 5c85 07bc 0b2e 61bc
00000340: 2169 20bb f58f e4bc 7895 aa3b 0304 edbb
00000350: 1852 a639 4ce2 033b d48e 67bb 5b36 b6bc
00000360: fc67 90bc 27b2 fbbb d6a4 ab3b da09 323b
00000370: 98c2 edba 771a f9bb 45ba 253c 391c 89bb
00000380: fe6b e2ba 6099 3bbc 6539 9bbb f9ef 29bc
00000390: 1d79 2d39 df7e beba d175 fbbb 13d8 913c
000003a0: 70d8 083c 3826 533b b1fc 313c fc21 243b
000003b0: 5275 e63b 63bf efbb 6270 663c a899 a9bb
000003c0: 8b98 b9bb 38b1 3bbb 5a26 3d3c bfc2 1e3c
000003d0: c4d8 b73b 510a 583c 8fdf c1bb 5822 d1b9
000003e0: cbe7 e43b e9dc a33c e018 f13b 7fac 46bb
000003f0: cb4a 4cbc a70b 2e3c f5b8 0abc b295 163d
-0.02577042 -0.013862479 0.000606277 0.0012465017 -0.010988458 0.007212499 0.05988792 -0.038677726
-0.045731597 -0.03884161 0.026713677 -0.057171326 0.0033555757 -0.05030892 0.007934102 0.0409373
-0.04763499 -0.0435196 -0.07684763 -0.0015519233 0.0461416 0.009061748 -0.010873299 -0.009166373
0.035846483 0.035623718 0.025496095 0.088606216 0.096846975 0.022819344 0.038394626 0.027168274
0.09394005 -0.003938561 0.00028896527 0.0004590853 0.024747204 -0.04134243 -0.05796707 0.0018458831
-0.005453267 -0.017623655 0.02346085 -0.004430183 -0.0050249016 -0.04145884 0.007308763 0.033333473
0.01522101 0.042814597 0.07509569 0.028175794 0.035539247 0.058988802 0.04824204 0.019598976
0.061309397 0.031492032 0.012897154 -0.015289981 0.05991091 -0.035299573 0.022988163 -0.005444808
0.013157112 -0.011802661 -0.03949842 -0.020537544 0.052905034 0.012494936 -0.0057489336 0.0029036317
0.04210889 -0.027394855 0.014574692 0.020568844 0.011050307 0.027158383 0.022225017 0.025762005
0.02576048 -0.03774658 -0.039281104 -0.028591055 0.029054156 0.0158404 0.019236227 -0.008842591
-0.057947487 -0.03293143 0.00450045 0.04722155 0.016434014 -0.017471034 0.012175125 0.0018265703
-0.0127805015 0.012546605 -0.027013158 -0.020168489 -0.020502703 0.021633334 -0.04504224 -0.034334287
0.010770901 0.055040848 0.06977867 0.03829375 0.01347758 -0.0032027774 0.018740362 -0.014633569
0.050200343 0.06963525 0.0490014 0.04550912 0.08940882 0.051862586 0.021943863 0.024330163
-0.009552218 -0.010269279 -0.001663319 0.044727877 0.007524228 0.04036165 0.055005226 -0.0030206484
0.03177829 -0.0077131484 0.031154895 -0.013635884 0.016212242 -0.008048348 0.06640826 0.057373013
0.060645003 0.07437208 0.07739423 0.048840836 -0.0061609684 0.03813096 0.035141427 0.009701246
0.021974726 0.009521765 -0.038745206 0.016168011 0.051705375 0.007179437 0.037348084 0.011385471
-0.023415163 -0.014041385 0.029849902 -0.040534645 -0.008883823 -0.006555718 -0.002608836 0.03260567
0.06620144 0.008942551 -0.010690466 -0.010504034 -0.009339462 -0.028446293 -0.0013988578 0.011515254
0.026848601 0.008536135 0.005659564 0.016545957 -0.02201004 -0.02741041 -0.010090297 0.013696404
-0.046080742 -0.017954465 -0.022249097 -0.0038404216 0.0059752287 0.027341157 0.023801912 0.023188611
-0.0038569006 -0.0003484382 0.0010382534 0.003096501 -0.011409248 -0.0073530157 0.01014167 0.027927082
0.011518142 0.0014814441 -0.023888128 0.014492973 0.05047525 0.04549191 0.006709369 0.0010361136
-0.023118732 -0.017196862 -0.02257397 0.0036137002 0.010178111 0.012343973 -0.008271541 -0.013743888
-0.0024476724 -0.027900675 0.0052058063 -0.0072331442 0.00031723152 0.0020123897 -0.0035332935 -0.022242716
-0.017627709 -0.0076811495 0.005238156 0.0027166517 -0.0018139658 -0.007602032 0.010115211 -0.0041842726
-0.0017274616 -0.011450142 -0.0047370666 -0.010372155 0.00016543684 -0.001453366 -0.007673957 0.017803228
0.008352384 0.0032218825 0.010863469 0.002504467 0.0070330286 -0.0073165162 0.01406488 -0.005175788
-0.0056639365 -0.0028639566 0.011544788 0.009689986 0.0056105573 0.013186053 -0.005916543 -0.00039889175
0.0069856397 0.0200028 0.0073577017 -0.0030315218 -0.012469004 0.010622895 -0.008466949 0.036763854

fc1.bias f4 [50]
00000000: 24b6 2640 5cd0 3340 80b1 fa3f 68b1 393f
00000010: d805 5b3d b1f0 e6be ae3b 8ebf dee1 03c0
00000020: 6882 32c0 fee1 4cc0 2956 5fc0 b7bb 5dc0
00000030: 2f20 5ec0 29d1 60c0 fe2c 5ec0 c876 5ec0
00000040: c513 5dc0 75cf 5dc0 113d 5fc0 b760 5dc0
00000050: 8127 5fc0 a0c5 5dc0 6d2a 5fc0 9bad 5ec0
00000060: 0df8 5cc0 46f0 5ec0 c568 5ec0 09f0 5dc0
00000070: 92aa 5dc0 e3ad 5ec0 fb63 5ec0 331c 5ec0
00000080: 4a49 5ec0 22f7 5dc0 3420 5fc0 7a10 5dc0
00000090: 0401 5ec0 f054 5ec0 629d 5dc0 9588 5dc0
000000a0: 45fc 5cc0 317e 5dc0 4d77 5ec0 b98b 5ec0
000000b0: 5d7d 5ec0 194c 5dc0 71b8 5ec0 6f4b 5ec0
000000c0: 3d0a 5fc0 0c0b d6bf
2.604867 2.8095922 1.9585419 0.72536325 0.05347237 -0.45105508 -1.1111963 -2.0606608
-2.7892094 -3.2012935 -3.4896338 -3.4645822 -3.4707143 -3.5127661 -3.471496 -3.4759998
-3.4543316 -3.4657872 -3.4881022 -3.459028 -3.4867861 -3.465187 -3.4869645 -3.479346
-3.4526398 -3.4834151 -3.4751446 -3.4677756 -3.4635358 -3.4793632 -3.4748523 -3.4704711
-3.4732232 -3.4682088 -3.4863405 -3.4541306 -3.468812 -3.4739342 -3.462731 -3.4614613
-3.4528973 -3.460827 -3.4760315 -3.477278 -3.4764016 -3.4577696 -3.4800074 -3.473354
-3.485 -1.6722121

fc2.weight f4 [14, 50]
00000000: b005 9e3c 279f edbd 5003 c93c 7449 9e3d
00000010: 4980 fabd ac3c 18bd 88f4 0a3d 41dd 96bd
00000020: 2ce8 a9bd f44c 40bd 3052 c63c 28a3 fabd
00000030: ed4b 053e 88f0 c93d c68c 09bd 80b0 9dbd
00000040: 2055 e93b b0a3 bd3c 4aa9 fe3d 6439 d5bd
00000050: 10fc d13c 827b b1bd 16bf a43d be74 77bd
00000060: 2ee0 df3d 943c ebbc a6f7 b73d 6c8e 0cbe
00000070: 6e22 f53d 543e 02bd 8451 6c3d c929 013e
00000080: 8a72 2abd 80fc 80bb cab3 82bd b0ac 20bd
00000090: f478 bdbd 6023 823c 9020 483d 0a50 d6bd
000000a0: a0e3 a7bb 4634 c03d 028c 40bd cbc3 0d3e
000000b0: b96d 86bd 0c07 06be e0b8 b63d 64b5 b63d
000000c0: 06d0 e2bd f28b c4bd 5eb5 f8bd 927b b53d
000000d0: 6a86 c9bd 742d b33d 66ba e43d 2860 a1bc
000000e0: 6613 f13d 927e c7bd 56d7 b73d ae29 2ebd
000000f0: c09c e4bc 55fd 0c3e 892f b8bd 0431 55bd
00000100: 1216 f7bd 3413 bd3d 2073 be3c b49a ecbc
00000110: e604 dfbd dce8 b53d fcc1 473d ba18 dfbd
00000120: 903b 2fbd ffda 8fbd 72b1 f93d 101d 7bbc
00000130: 7f70 043e 46d1 e33d 00ac 58bc 9237 ec3d
00000140: d787 093e deb8 a93d 6caf ca3d fca9 853d
00000150: 500d 503d 40fd 2f3d 1956 afbd e083 433c
00000160: c096 e0bc c082 813d 78ce 983c 04b2 9bbc
00000170: 5cac 91bc 7a3e a53d f85a 293d 6f36 0b3e
00000180: ba9f 9c3d 8483 013d cc19 3ebd e47a e5bc
00000190: f095 783c 2474 763d f47c 78bd 0b8b 0abe
000001a0: 20a8 ca3d ce5e 0fbd b66e 03be 52a0 da3d
000001b0: 71c7 89bd ec81 f2bc a06a 5f3d b0df 783c
000001c0: 20de 243c d0fc c13d 40af b0bb 08cb c93d
000001d0: 1c2a 123d 4252 02be 2079 363c dff8 d3bd
000001e0: b16b 0abe 3016 343c 48d0 ab3d 1077 1dbd
000001f0: 6932 f7bd 2052 923c f0cc 1d3c e2df ec3d
00000200: 4930 063e ad2a a1bd fd1f eebd 2ca2 c33d
00000210: 7c4e bcbd 58e9 b53d a021 61bd a21e a53d
00000220: 230e 013e addd bbbd 4849 593d 80da a4bb
00000230: 6c24 05bd c8d1 be3d 2cec 6c3d 3e9d f33d
00000240: 0609 fb3d 8afc 5abd 07f4 0e3e 348b a4bd
00000250: 60bb 2d3c 87ca 073e 4008 9b3d f8b5 01be
00000260: c4e1 243d 78a6 863d 661f c7bd c588 85bd
00000270: 98bc 473d ca9b 9fbd 68fe c43d c492 4ebd
00000280: 5e58 32bd 33b4 0cbe 1863 d63c 60e6 0abc
00000290: 3847 0cbd 0a94 933d 84fd bfbc a03a 1bbd
000002a0: 9b6d 86bd 6411 1f3d 000d c83d 2469 a93d
000002b0: d07e 983c 1430 15bd 464f e93d c24f d03d
000002c0: f64b f63d 3eae f13d bc38 a7bd 796a a2bd
000002d0: 266a 13bd db31 f5bd 46b4 51bd 26e3 e73d
000002e0: fc5b 45bd e64d f23d 0601 d33d d418 bc3d
000002f0: b24b b6bd 203a 64bc e0e9 183d cea5 7abd
00000300: 8ac1 a13d 9b27 f0bd e077 6abc a016 22bc
00000310: 2e95 f53d 9a04 e03d c265 d53d b0fd cbbd
00000320: f486 44bd df75 073e b88d fabd 2cf2 5dbd
00000330: 6079 a23b 4c75 ffbd ec18 9c3d 9050 f0bc
00000340: 9a35 ee3d 8af1 ea3d 985c 003d c8de 9bbc
00000350: 52f8 0abe e67a ed3d f8e7 eabc 2430 b4bc
00000360: 2ab2 fc3d 0082 c5bb 648e dbbd b51b fcbd
00000370: 8ac0 aa3d 58d5 f5bd dbab 94bd 2c9c cbbc
00000380: d422 193d 2ba8 053e 788b 413d f810 8dbd
00000390: 00e0 cdb9 0342 0a3e 5271 62bd 0054 7c3b
000003a0: 8403 413d c040 bf3d c469 aabc 251a 063e
000003b0: c068 8abd 361d bcbd ac70 173d c082 bb3d
000003c0: cb65 f4bd f201 aa3d b074 bf3c c0f0 a93c
000003d0: 0085 103c b22f 0abe 30a5 c93d 216e 0f3e
000003e0: 560f 6dbd fc5c 3e3d 18b8 9f3c a0d1 113d
000003f0: 52cb f6bd b034 2fbd d6db 36bd 80b8 a9bb
0.019289821 -0.116026215 0.024537712 0.07728854 -0.122315 -0.037167236 0.03392461 -0.073664196
-0.082962364 -0.04694839 0.024209112 -0.12238151 0.13017245 0.09860331 -0.033581518 -0.0769968
0.0071207434 0.023149341 0.12434633 -0.10411337 0.025632888 -0.08666135 0.08044259 -0.06041407
0.10931431 -0.02871541 0.08982782 -0.13726205 0.119694576 -0.031797722 0.057694927 0.12613596
-0.04161314 -0.0039363503 -0.06381948 -0.039227188 -0.092515856 0.015886009 0.04885918 -0.10464485
-0.0051235706 0.0938497 -0.04700852 0.1384422 -0.06563897 -0.13088626 0.08921981 0.08921316
-0.110748336 -0.09597005 -0.12143968 0.0886146 -0.098400906 0.08748904 0.11168365 -0.019699171
0.11771278 -0.09740938 0.08976619 -0.042520218 -0.027906775 0.13768514 -0.089934416 -0.052048698
-0.120647565 0.09232178 0.023248255 -0.028882362 -0.10889606 0.08882305 0.048768982 -0.10893388
-0.042781413 -0.07024192 0.12192048 -0.015326753 0.12933539 0.111239 -0.013224602 0.11534037
0.13430725 0.08287214 0.0989674 0.065265626 0.050793946 0.042966127 -0.08561344 0.011933297
-0.027415633 0.06323767 0.01865314 -0.019005783 -0.017782383 0.08068557 0.04134652 0.13594984
0.07647653 0.031619564 -0.04641132 -0.0280127 0.015172467 0.060169354 -0.06066604 -0.13529603
0.098953485 -0.035002522 -0.12835202 0.1067511 -0.067274936 -0.029602967 0.054545045 0.01519005
0.010062724 0.09472048 -0.005391985 0.09853178 0.03568469 -0.12726691 0.011137277 -0.10350203
-0.13517644 0.010991618 0.08389336 -0.038443625 -0.12070162 0.017861426 0.00963138 0.1156614
0.13104357 -0.07869468 -0.11627195 0.09552416 -0.09194657 0.088823974 -0.054963708 0.08062483
0.12603049 -0.09173141 0.053048402 -0.00503093 -0.032505438 0.09317356 0.05784242 0.11895226
0.122575805 -0.053463496 0.13960277 -0.080343634 0.010603756 0.13260852 0.07569933 -0.12667072
0.04025437 0.0657472 -0.09722786 -0.06520227 0.04876384 -0.07793386 0.09618837 -0.050432935
-0.043541305 -0.13740616 0.026170298 -0.008477777 -0.034247607 0.072059706 -0.023436315 -0.037897706
-0.06563874 0.038834944 0.097681046 0.08272007 0.018615156 -0.036422804 0.11392073 0.101714626
0.12026207 0.11800812 -0.08165118 -0.07930464 -0.035989903 -0.119724 -0.051197313 0.11322622
-0.048183426 0.11831264 0.103029296 0.09184423 -0.089011565 -0.013929874 0.037332416 -0.06119328
0.07898243 -0.11726304 -0.014310807 -0.0098930895 0.119913444 0.10938378 0.104197994 -0.099604964
-0.047980264 0.13228558 -0.12234062 -0.05418603 0.0049583167 -0.124735445 0.07621941 -0.02933529
0.116313174 0.11471851 0.031338304 -0.019027129 -0.13571289 0.11595707 -0.028675064 -0.021995611
0.123386696 -0.00602746 -0.10720518 -0.12309972 0.08337505 -0.12003583 -0.07259341 -0.024854742
0.03738673 0.13052432 0.04725215 -0.06888002 -0.0003926754 0.13501744 -0.055283852 0.0038502216
0.047122493 0.09338522 -0.020802386 0.13095911 -0.06758261 -0.09185259 0.036972687 0.09155798
-0.11933478 0.08301152 0.02337107 0.020744681 0.008820772 -0.13494757 0.0984596 0.14006855
-0.057875954 0.046475396 0.019496962 0.035600305 -0.12050499 -0.042774856 -0.044643246 -0.005179465

fc2.bias f4 [14]
00000000: 28c6 90bc 6aa2 df3d e653 b93d 4da3 eabd
00000010: da09 04be 6e8d 31bd 0429 9bbc 4568 083e
00000020: c07f 27bb fcb8 6fbd e3a3 9bbd 1a1d d2bd
00000030: ea05 883d a35c 0c3e
-0.017672613 0.1091965 0.090492055 -0.114569284 -0.12894383 -0.04334777 -0.018940456 0.13321026
-0.0025558323 -0.058526024 -0.07599618 -0.10259457 0.06641753 0.13707213
